data/models/three-layer_hidden-size-128-64_params.pth (torch, 441021 bytes, 6 tensors)

fc1.weight f4 [128, 784]
000000 55 a1 34 3c ce 25 e5 3b 7b 52 51 3c b6 b3 49 3d
       0.011024793 0.006993032 0.0127760125 0.04924365
000010 63 a9 35 3b 5b 0e 11 3d bb 86 83 3c c8 4b f9 3b
       0.002771937 0.03541408 0.016055455 0.007607911
000020 3c ca b9 bb cf 12 82 3c 44 31 54 3d fa 21 27 3d
       -0.00566986 0.01587811 0.051804796 0.040803887
000030 4f 1b f6 3c f1 27 00 3d c9 3b ab 3b 1a b2 7e 3b
       0.030042319 0.03128809 0.005225633 0.003886348
000040 1c cc 36 3d ab 7a 06 bc e6 f6 82 3b b0 63 e0 bb
       0.044628248 -0.008207957 0.0039967177 -0.006847821
000050 8a fb 1d 3d e2 2e 1f 3d 71 46 f0 3c 00 95 da bb
       0.038569964 0.03886307 0.029330464 -0.006670594
000060 04 4b 47 3d 28 7f 26 3d ce a3 ab 3a 73 04 9c bb
       0.048655525 0.04064861 0.0013095082 -0.0047612726
000070 df 94 ae 3c 56 b5 e2 3b 42 4f 12 3d 0c 90 44 3d
       0.021311222 0.0069185896 0.035720117 0.047988936
000080 c2 c7 2b 3d 00 b3 3c 3d 80 a0 3e 3c 43 07 87 3c
       0.04193855 0.046069145 0.011634946 0.016482955
000090 29 34 7e 3b 2b b3 73 bc ce 63 38 bb 1c 8d f9 bb
       0.0038788414 -0.01487426 -0.002813566 -0.0076156985
0000a0 51 67 39 bc 59 fa 1e 3d ba df c6 bb 1a b7 58 3d
       -0.011316136 0.03881297 -0.0060691508 0.052908994
0000b0 ce 59 83 3a 1e b4 27 3d d5 51 9a 3c f5 1b 9e bb
       0.0010021271 0.040943258 0.018837849 -0.00482511
0000c0 b8 3c c0 3b 22 e8 e4 3c ee f7 15 3d f5 0e ba 3b
       0.0058666132 0.02794272 0.036613397 0.0056780525
0000d0 fb 70 77 3c 67 81 0c 3c e1 d2 e1 3c 25 f4 cf 3c
       0.01510262 0.008575774 0.027566375 0.025384972
0000e0 ba 7f a9 37 e4 de 27 3d ce 5a 07 3c ee cf 4c 3d
       2.0205847e-05 0.04098405 0.008261396 0.050002985
0000f0 b8 96 7f 3c 62 ec 83 3b a9 3a f5 3c e1 cd 6f bc
       0.015599899 0.0040259818 0.029935198 -0.014636488
000100 e3 c0 bb 3c fe 94 02 3d 10 6b 3d 3b ab d5 cf 3c
       0.022919124 0.03188037 0.0028902926 0.02537044
000110 ae 83 94 3d 60 ff 43 3c 6c 45 59 3c 14 e2 b1 3c
       0.072516784 0.011962742 0.01326118 0.021714248
000120 38 05 04 3c e7 0a 9c 3b e9 0e fb 3b e2 8a 18 bd
       0.008057885 0.004762042 0.0076616895 -0.037241824
000130 40 e8 41 bc 95 c3 69 bc 38 44 5c bc c3 84 39 3d
       -0.011835158 -0.014267822 -0.013443999 0.045292627
000140 4a 2d 3a 3c 0c 3d 61 3d d4 60 36 3d 3b 6a 59 3c
       0.011363337 0.05498986 0.044525936 0.013269956
000150 7d 8c 07 3c 8b 8f e4 3c aa 34 3b 3d eb 44 8a 3c
       0.008273241 0.027900478 0.04570452 0.016878566
000160 c1 2d 11 3d 41 4b 1b 3c d3 ec 0d 3d 4b 35 03 3d
       0.035444025 0.009478391 0.03464968 0.032033246
000170 b2 6d 08 3a 99 5e 2e 3d 9e eb be 3c 32 3e 88 3d
       0.0005204334 0.042570684 0.02330571 0.06652488
000180 8b 13 8e 3d 8f fc 75 3d 5b 04 1f bc f8 b2 2d bc
       0.06937321 0.06005531 -0.009705628 -0.0106017515
000190 31 c1 1e bc 60 da ee 3a 40 9f 5e bd 3a bb 93 bc
       -0.009689615 0.001822304 -0.05435109 -0.018033613
0001a0 09 16 41 bd c5 e1 cd bc 55 c2 3b bc b3 af 13 3d
       -0.047140155 -0.02513207 -0.011459907 0.03605623
0001b0 a7 cf 49 3c 01 6c 35 3d 5d b7 12 3d 4d 4c b8 3c
       0.012317575 0.044292454 0.0358194 0.02249732
0001c0 69 62 7c 3c bf 49 e2 3c 3c 76 39 3a 95 c8 64 3c
       0.015404322 0.027623056 0.0007074808 0.013963838
0001d0 40 43 a5 bc 6f 39 41 3d d0 31 d5 3c a7 29 81 bb
       -0.020173669 0.047173914 0.026024729 -0.003941733
0001e0 7a 86 85 3c 59 7b 36 ba d9 37 ad 3c 25 cc 28 3d
       0.016299475 -0.0006961129 0.021144794 0.041210312
0001f0 8a 10 96 bc 64 e7 0e bd 99 3c 88 bd 1b ee e7 bc
       -0.018318433 -0.03488864 -0.06652183 -0.02831178
000200 22 bf a2 bd 23 97 a8 bd 6e c6 8d bd dd de 0f bd
       -0.07946612 -0.08231952 -0.06922613 -0.03512465
000210 0a 22 a5 bb 26 d1 81 bd db b8 2a bc 70 3d 36 3b
       -0.005039458 -0.0633872 -0.01042005 0.0027807616
000220 8b 7e 0d 3a e3 17 e9 3c 19 73 6e bc a3 29 27 bc
       0.00053975795 0.028453773 -0.014553809 -0.010202798
000230 dc 0a 4d 3d 85 ef ce 3c a9 01 24 bc e9 da 2e 3d
       0.050059184 0.025260696 -0.010010161 0.042689238
000240 0b 39 c2 3c 6e b5 60 3c c5 4e 01 bd 18 71 d6 bb
       0.02370884 0.013715131 -0.03156926 -0.0065442435
000250 d4 22 25 bd c9 11 ef bc f6 f4 30 bd 44 57 db bd
       -0.040316418 -0.029183285 -0.043202363 -0.10710004
000260 7b 58 08 be c6 f3 43 bd 1d bc e5 3b 34 74 2d 3d
       -0.13315003 -0.047839902 0.0070109502 0.042347148
000270 75 38 39 3d 34 07 93 3c 13 5d 26 3c 76 dc a1 bc
       0.045219857 0.01794777 0.010154027 -0.019758444
000280 5a 8b 8b 3b b3 f0 21 bd f9 5c 4d bc f6 b5 06 bc
       0.0042585554 -0.03953619 -0.012534373 -0.008222094
000290 26 b1 dd 3b e1 cd 26 3a 5c 06 0d 3d 57 74 3d 3d
       0.0067655025 0.0006363076 0.034429893 0.04625353
0002a0 eb 10 9b 3c 48 d5 a3 3c c1 84 9e 3c cb 75 a6 bb
       0.018928966 0.019999161 0.019350411 -0.00507996
0002b0 f8 11 1a bc ac 72 ad ba c2 94 ec bc 81 5f c7 bd
       -0.009403698 -0.0013233027 -0.028879527 -0.09735013
0002c0 a6 0e 03 bd 88 5e 45 3b 8b 1a 38 bd b2 97 eb bd
       -0.03199639 0.003011616 -0.04494719 -0.11503543
0002d0 1b 04 38 bd 5d 9b 95 3c 8c 03 c0 3d c1 35 08 3e
       -0.04492579 0.01826256 0.093756765 0.13301755
0002e0 a4 fc 0c 3e 78 0e ce 3d 20 0c c4 3d d3 d1 1c 3d
       0.1376825 0.100613534 0.09572625 0.03828604
0002f0 6f e4 1f bd bb d3 1f bd f6 0b 86 bd 8a d5 e2 bc
       -0.03903621 -0.03902028 -0.0654525 -0.027689714
000300 cd 87 65 bd 9b d9 c4 3c 5c f6 4d bc 7d ef 1e 3d
       -0.056037713 0.024029544 -0.012570944 0.038802613
000310 2f 95 34 3c 85 7e 27 3d 25 b1 51 bb bd 06 13 3d
       0.011021896 0.040892143 -0.0031996456 0.035895098
000320 6d 38 68 bb cd 21 22 bc 7f 21 33 bd 87 fe 6a bd
       -0.0035434023 -0.009895754 -0.043733116 -0.057371642
000330 51 03 0b bd 68 c5 dd bc 54 9b a1 bc dc 75 b7 bb
       -0.03393871 -0.02707167 -0.019727387 -0.0055987667
000340 52 1c 8f 3d 86 f0 c0 3d 10 4c c8 3d 3b 0e bd 3d
       0.069878235 0.09420876 0.09780133 0.0923123
000350 52 52 c5 3d 80 ed cb 3d 82 0a 99 3d 60 5c a4 3d
       0.09634842 0.09957409 0.07472707 0.08025432
000360 d7 cb 82 bb 81 42 8b 3c b9 f4 62 bc c9 27 82 bd
       -0.0039915848 0.016999485 -0.013852292 -0.06355245
000370 08 83 e3 bd 3c 4a c1 bd 05 72 0d 3d f4 1d 28 bc
       -0.111089766 -0.09437987 0.034532566 -0.010261048
000380 e9 d4 a3 ba af ef d5 3a 61 f5 0a 3d 74 b3 e5 bb
       -0.0012499365 0.0016322042 0.033925418 -0.007009918
000390 49 95 ab 3c 1c e2 14 bc f1 fb 90 bd 54 8a 34 3b
       0.020945208 -0.009087112 -0.07079304 0.002754827
0003a0 02 06 d6 bc ba 13 01 3b bc 1a 92 3c 8e dc a1 3d
       -0.026125912 0.0019695596 0.017835014 0.079033956
0003b0 51 e4 b5 3d f0 15 ca 3c 83 65 9f 3d 79 3c 8f 3c
       0.088814385 0.024668664 0.07783034 0.01748489
0003c0 92 96 47 3b 8b 4a 7a 3d fa 38 81 3d 5e de ac 3d
       0.0030454737 0.061106246 0.063096955 0.08440851
0003d0 23 52 7c 3c ce f3 ae 3d 04 c2 73 3d d9 0f 92 bc
       0.015400442 0.08542596 0.0595112 -0.017829822
0003e0 bd 8d 13 be 9a 73 a5 bd 41 c1 3a 3c b9 d5 20 bc
       -0.14409538 -0.0807869 0.011398614 -0.00981658
0003f0 bf 06 bf 3c c9 63 02 bc e3 58 29 3d 93 2d f0 3c
       0.023318646 -0.007958361 0.041344535 0.029318606

fc1.bias f4 [128]
000000 77 e2 64 3c 83 9d 09 bd 62 cf 62 bc 47 0a 8b bb
       0.013970009 -0.03359748 -0.013843389 -0.0042431685
000010 cc 86 b4 bc 8c a9 63 3c c7 e5 f1 3c f6 25 78 bc
       -0.022036932 0.013895404 0.029528512 -0.015145769
000020 ed 2f 67 bd 4e bf 07 bd 84 84 0d 3d 05 8c a7 3b
       -0.05644219 -0.033141427 0.034550205 0.005113127
000030 99 7a b6 3b 6c 74 02 3d 7b 51 14 bd 2d e1 16 3d
       0.005568814 0.03184931 -0.03621052 0.036835838
000040 7c 3a 49 bb 7b 50 9b 3c ab 94 0f bd d0 95 dd 3c
       -0.0030705025 0.018959275 -0.03505389 0.027048975
000050 e3 8e 53 bc ae 37 83 bc 75 7a 20 bb ac 88 15 3d
       -0.012912485 -0.016017761 -0.0024487053 0.036507294
000060 00 6e 05 bc e6 64 b2 3c 26 e6 a9 3b e3 87 b4 3c
       -0.008143902 0.021776628 0.0051849065 0.022037452
000070 46 a1 19 3d 94 3c 00 bc 50 f6 22 bd 18 b0 9a 3b
       0.037507318 -0.007826943 -0.039785683 0.004720699
000080 8d 0b 40 bc 91 1e 06 bd de c4 ae bc bb 43 23 bd
       -0.011721504 -0.032743994 -0.021334108 -0.039859515
000090 b6 94 a0 bc 61 61 4d bb e1 30 8b 3b 06 a3 64 ba
       -0.01960216 -0.003133856 0.00424777 -0.0008721802
0000a0 69 fa 54 3b 39 c4 23 bd c1 a9 a3 ba f2 52 98 bb
       0.003249789 -0.039982054 -0.0012486504 -0.0046485597
0000b0 a3 aa cb 3c e1 79 49 bc 3e 3a e1 3c 59 c2 97 3c
       0.02486164 -0.012297125 0.027493592 0.01852529
0000c0 43 be fe 3c f5 ec 96 bb 4c f6 d8 bc 74 1c c7 3c
       0.031096583 -0.004605884 -0.026484631 0.02430556
0000d0 84 dd e5 3c d2 66 7f 3c 3b 45 64 bc 93 2f 42 bd
       0.028059728 0.015588479 -0.013932521 -0.04740865
0000e0 2f 71 e2 bc 05 8b 50 bc 1b 77 1d bb e9 6d 19 3d
       -0.02764186 -0.012728457 -0.0024027291 0.037458334
0000f0 4d 7b d2 3c 44 30 25 bd 1f 8e d4 bb 96 46 db bc
       0.02569356 -0.040329233 -0.0064866687 -0.026767056
000100 6d 9e 9e b9 e5 3d 22 3d 84 09 0a bd 7c 9d da bc
       -0.00030254145 0.03960981 -0.03370048 -0.026686423
000110 6d 76 90 bb 57 bd d7 3a 8e ea 30 bd 76 f0 36 3d
       -0.0044086487 0.0016459626 -0.04319244 0.044662915
000120 d9 ed c7 bc a8 5d 7e 3c 09 c3 75 3c fa 25 34 3c
       -0.024405407 0.015525259 0.015000113 0.010995382
000130 bc a8 2e 3d 5d fa 08 bd ae 3a 47 3b 22 dc 74 3c
       0.042641386 -0.03344189 0.0030399966 0.014945062
000140 59 81 a5 3a bd 31 dc bc b4 f4 4b ba d2 aa 49 bd
       0.001262705 -0.026879186 -0.0007780299 -0.049235173
000150 db 25 f3 bc 07 9e b5 3c bf 92 95 bb 20 e1 74 bc
       -0.029681137 0.02217008 -0.0045646126 -0.014946252
000160 d2 0b 35 3c 1a d6 d4 bc f8 d4 12 3a f3 04 9d bb
       0.011050181 -0.025980998 0.0005601193 -0.0047918498
000170 17 17 7d bc 6c ce cc 3c 91 ab 92 3c c3 cb 35 bd
       -0.0154474 0.025000773 0.017904075 -0.044383775
000180 14 67 0c 3d 5f 91 8a bc 4d 75 3a 3b 78 0a 8d 3c
       0.03427799 -0.016915021 0.0028451264 0.017216906
000190 c6 9e 1b bb ad ad 7a bc d0 df 48 3b 0e ac 57 bc
       -0.002374576 -0.015300197 0.003065098 -0.01316358
0001a0 67 d7 1b bc 3c 6d 31 3c 95 1a 99 bc 05 36 c4 bc
       -0.009511805 0.010829266 -0.018689433 -0.02395154
0001b0 c1 aa 1d bc dd 94 1e 3d ee 8c 1c 3d 22 81 2d 3c
       -0.00962323 0.038716186 0.03822034 0.01058987
0001c0 d4 59 50 3c 00 31 01 bd 24 75 4e bc 2b 03 36 3c
       0.012716729 -0.03154087 -0.012601171 0.011109154
0001d0 cc 15 fd 3b ff 39 07 bd de 86 06 bd aa 2b 92 bb
       0.0077235457 -0.033014294 -0.032843463 -0.0044607716
0001e0 c5 c9 fe bc cb 44 60 3b d5 b9 c8 bb c6 22 61 bc
       -0.03110207 0.0034220691 -0.0061256685 -0.013741201
0001f0 fa b4 00 bc 67 9b bf 3c 5a 4b 0a 3d 1d 5c 6e 3b
       -0.007855648 0.023389531 0.033763267 0.0036370822

fc2.weight f4 [64, 128]
000000 d6 2a 04 bc bb 22 32 3e 96 bc ef 3c fb c3 3b bd
       -0.0080668535 0.17396061 0.02926473 -0.0458412
000010 64 8d a0 3c 96 fe f7 3c 8c 59 64 3d cb aa 5b 3e
       0.01959867 0.030272763 0.05574946 0.21451871
000020 a5 31 07 3d 92 b5 9a bd 03 81 f2 bd c3 a3 24 3e
       0.03300633 -0.07554163 -0.11841013 0.16078095
000030 9d c4 ca 3d 99 24 0e bd 17 f7 93 bd 77 03 b1 bd
       0.09900782 -0.03470287 -0.07224863 -0.08643239
000040 8b 43 6c 3c 52 44 36 3d b8 ae bd 3d 86 bb 87 bd
       0.0144204 0.04449875 0.092618406 -0.06627564
000050 81 06 45 bd e8 e2 78 be 90 b3 a8 3b b3 5b 17 bd
       -0.048101906 -0.24305308 0.0051483586 -0.036952686
000060 7d b2 ce 3d 20 fc 54 3e 98 b3 b0 3b e9 2e 80 3d
       0.10092638 0.20799303 0.005392503 0.062589474
000070 7d 38 8a bd 93 10 63 3d 59 a7 44 3d f2 bc 1c 3c
       -0.067490555 0.05543573 0.048011158 0.009566532
000080 3b 6c 8a bd 74 fa af 3c d5 0f 30 be 43 67 55 3d
       -0.067589246 0.02148173 -0.1719354 0.05210043
000090 6b c0 43 bc 65 5b 57 be a9 05 9f bd 53 36 a2 3d
       -0.0119477315 -0.21030958 -0.077647515 0.07920518
0000a0 2b 9d fc 3d bd f1 90 3d 1b d3 84 3d 66 1d cd 3d
       0.12334665 0.07077358 0.06485578 0.10015373
0000b0 66 93 c2 3d c1 fc 58 bc 2d 7c 4a be 70 49 04 3e
       0.0950077 -0.013243855 -0.19773932 0.12918639
0000c0 a7 bc ed bd 75 fa 8e 3c cb f0 e2 bd 00 94 82 3d
       -0.11608248 0.017453412 -0.11081084 0.06375885
0000d0 c7 2e 11 bd 4d fe 32 3e 87 d0 a5 3c 47 08 5f bd
       -0.035445 0.1747982 0.020241035 -0.054451253
0000e0 c0 15 a1 bd c6 dc 01 bd 24 0d 3e bd ab 94 90 bc
       -0.078654766 -0.031704687 -0.04639925 -0.017649015
0000f0 d2 89 cb 3b e4 58 05 be 54 ef 49 bd fb 05 34 3d
       0.006211498 -0.1302219 -0.049300507 0.043951016
000100 cb 67 57 bd 22 f4 46 3b de b4 a9 bd ad d8 48 bd
       -0.05258922 0.0030357917 -0.08286451 -0.049034763
000110 f5 99 06 3d e7 e8 af bd 97 36 86 3d 52 36 0a 3e
       0.03286167 -0.085893445 0.06553381 0.13497284
000120 87 85 86 3c 90 f6 b1 3c ca 45 4d bd e6 44 da bd
       0.016421093 0.021724015 -0.050115384 -0.106576726
000130 ef 86 a2 bc 7f b1 22 be 19 26 ea 3d 80 c4 cf bd
       -0.019839732 -0.15888022 0.11433048 -0.10144901
000140 61 6e 31 bc 39 c9 87 3d 33 9d e6 3b 0a b7 ac bd
       -0.010829539 0.06630177 0.0070377826 -0.084333494
000150 a9 3d d9 bd 83 dd ae bd 1c 72 8f 3d 5a e5 1c 3c
       -0.10607464 -0.08538344 0.070041865 0.009576166
000160 39 83 1a 3d c3 2d cc 3d 1c b3 b0 bc bc a6 a3 bd
       0.0377228 0.09969666 -0.021569781 -0.079907864
000170 a6 fe fb bb 28 5d 02 3e cc ec d6 3d 1f d1 54 bd
       -0.0076902686 0.12730849 0.10494384 -0.051957246
000180 6f 10 3d bc 94 b6 84 3d 07 f1 95 bb 7d 0b a4 3d
       -0.011539563 0.064801365 -0.004575852 0.08010004
000190 10 3f ad 3b 09 33 7f 3d 10 5e ef bc d7 92 fe bd
       0.0052870587 0.06230453 -0.029219657 -0.12430351
0001a0 f2 95 eb 3d f6 eb d7 3d cd d7 0c 3e 62 5e f0 3c
       0.11503209 0.10543053 0.13754196 0.02934188
0001b0 20 08 3b bc df ed 9d 3d 12 6a be 3c 15 47 d0 3d
       -0.011415511 0.07711386 0.023243938 0.10169808
0001c0 a4 a4 9f 3c 1c 4e 0c 3e 74 26 7f bc 6c 57 2e 3d
       0.019487686 0.13701671 -0.015573133 0.04256384
0001d0 25 b4 dc 3d 40 4b 80 bd be 9d b0 bd ef 53 5d 3d
       0.10776547 -0.06264353 -0.08623837 0.054035123
0001e0 5c c7 f5 bc 71 cc 6e 3d a5 ce 06 bd 99 a0 ed bc
       -0.030002289 0.05830044 -0.032911915 -0.029007243
0001f0 49 6f aa 3d 4d 2c 46 bd c2 45 eb bd 79 5c ba 3d
       0.08322007 -0.048382092 -0.114879146 0.09099669
000200 e2 98 e6 3d af 24 0d 3e 4e 9c c9 3d 70 62 a6 3d
       0.11259629 0.13783525 0.09844266 0.08124244
000210 6e bc c0 3d c7 4a c2 3d fc b1 02 bd db ba 42 be
       0.0941094 0.09486919 -0.03190802 -0.19016592
000220 a3 87 8b 3d 48 2c 65 3d ea 82 16 bb f7 3e b2 bb
       0.0681298 0.055950433 -0.0022966214 -0.005439635
000230 ef ed b4 3c 6a dc b9 3c 36 a4 bb bc ea 00 42 bd
       0.022086112 0.02268811 -0.02290545 -0.047364153
000240 b5 bb f4 3d b0 7f 7b bd c5 c7 1a be 2e 34 9f 3e
       0.11949865 -0.06140107 -0.15115269 0.31094497
000250 cb 8f 1b bb 67 4d 49 3e 3c b6 49 3d 37 36 b9 3d
       -0.002373683 0.19658433 0.049246058 0.09043544
000260 0f 58 b7 bd cd 37 15 be aa 22 77 bc 09 04 0e 3b
       -0.08952343 -0.14572068 -0.015083948 0.0021669886
000270 f0 58 e1 bc ff 49 4a bd 27 18 92 3d 70 13 05 3d
       -0.027508229 -0.049386974 0.07133513 0.03248924
000280 44 10 5e 3c 94 67 83 bd bf ec 1d 3e c1 fe 1e be
       0.013553683 -0.0641624 0.15422343 -0.15526868
000290 7a af d7 3d 8c 27 98 3c 68 30 e6 3d 83 3c 59 bd
       0.105315164 0.018573545 0.112397015 -0.053036224
0002a0 b3 27 01 3d 97 50 a3 bd 61 b4 d9 bd aa 16 7d 3d
       0.031532 -0.07974356 -0.10630108 0.061789192
0002b0 c7 5f a1 3c 19 a2 a1 3d e8 8c 08 bd 8d c9 d8 3d
       0.01969899 0.07892246 -0.033337504 0.10585318
0002c0 7f 5c de 3d 99 bd b6 3d b5 50 a4 bd 3b c8 9d 3d
       0.10857486 0.08922882 -0.08023206 0.077042066
0002d0 0f ca ea 3d 4b 22 26 be d0 67 10 bd 5a 3a 98 bd
       0.11464321 -0.16224019 -0.035255253 -0.07433005
0002e0 bb 10 b6 3c 2b d9 c6 bd 00 ff 39 be 10 ab 95 3d
       0.022224775 -0.0970939 -0.18163681 0.07308018
0002f0 66 25 2c bd 4b 3e 5d 3d 15 47 a5 3d 7e 99 7a bc
       -0.042027853 0.054014485 0.080701984 -0.015295384
000300 13 3f d2 3d b4 ad 2b 3c b8 3e c8 bd ff 18 84 3d
       0.10265937 0.010478426 -0.09777588 0.0645008
000310 7b 77 87 bb f7 f7 8f bd 77 81 64 3b a4 8a 85 bc
       -0.004134116 -0.070297174 0.0034867206 -0.01630146
000320 bc 6c a2 3d 21 64 f9 bd f7 12 f7 3d 82 08 86 bc
       0.07930896 -0.12177301 0.12064164 -0.016361479
000330 09 aa eb bc 0a 10 48 3e fb 25 93 bd d3 27 16 3d
       -0.028767603 0.19537368 -0.071849786 0.036659073
000340 9e 30 dc bb 67 cf b3 bb 76 05 5d 3d 1f 0f a8 bc
       -0.006719663 -0.005487371 0.053960286 -0.020515023
000350 67 a8 2d 3b b0 9d 71 bc f0 99 ed bc ad ee e5 3d
       0.002649808 -0.014747068 -0.029004067 0.112271644
000360 2c 74 97 bc 25 11 6b 3b 59 44 ca bd 5b 2d 6f 3b
       -0.018488012 0.0035868373 -0.098763175 0.003649554
000370 96 3e 91 bc 5f 56 a1 bc a4 7b ba 3c c9 e8 6e 3d
       -0.017730039 -0.019694505 0.022764035 0.05832747
000380 80 aa 28 bc 71 ea 08 3d 8d 39 06 3d c0 46 9a 3d
       -0.010294557 0.033426706 0.03276973 0.07533026
000390 f6 8d 94 bd f3 fe 9e bd d2 9a b3 3d 50 48 24 3d
       -0.072536394 -0.077634715 0.08769764 0.040108025
0003a0 7e 70 04 3e a5 31 ad 3d 77 d0 5e bd 4a 67 f9 3d
       0.12933537 0.084567346 -0.054398026 0.12177904
0003b0 2d f8 8b 3e d1 20 3f 3b ed fe 00 3e de 4b fc 3c
       0.2733778 0.0029163847 0.12597246 0.030797895
0003c0 39 94 87 bc c6 73 13 3e c2 7d 28 bd f7 9f 12 3e
       -0.01655017 0.14399633 -0.041135557 0.14318834
0003d0 50 f0 03 3c eb f5 46 b9 de cc cc 3d e7 54 b6 bd
       0.0080529 -0.00018974363 0.10000013 -0.089029126
0003e0 c6 11 3a be e0 93 9d 3c 6e 43 d3 bd 40 0b 95 3d
       -0.18170843 0.019235551 -0.103155956 0.072775364
0003f0 a8 5c d9 3d 1c 67 80 bd 7a b0 9c bc 91 d3 6e 3d
       0.10613376 -0.062696666 -0.01912712 0.058307234

fc2.bias f4 [64]
000000 38 af d2 bb 1d 3b b3 bd 4a f0 d8 bc 2b 2d 5a bd
       -0.006429579 -0.08751509 -0.026481766 -0.05326573
000010 8c a3 82 bc 13 e4 0f 3d 6e 36 36 3d 51 e5 c9 3d
       -0.015947126 0.035129618 0.044485502 0.09858192
000020 90 bd 84 3d b7 c5 fc 3d 57 f5 37 bc d9 97 d2 3c
       0.06481469 0.123423986 -0.011227927 0.025707172
000030 78 47 e9 3c e0 2c 41 bc db 6d 09 bc c7 95 6e 3a
       0.028476462 -0.011790484 -0.008388008 0.0009101298
000040 85 c3 5b bd 8b 1f b6 3d 47 f9 e9 3c 15 7e 46 bb
       -0.05365326 0.08892735 0.028561248 -0.0030287553
000050 51 c0 54 3d 29 b6 01 3e 8c 03 9b 3d 8b 91 00 3d
       0.05194122 0.12667145 0.07569036 0.0313888
000060 85 e7 52 3d d6 e7 8a bd ee 26 28 bd c8 94 29 3d
       0.051490325 -0.067825004 -0.04105275 0.041401654
000070 e6 7c d9 bc fa 7d 64 bd d9 fe cd 3d 3c a6 96 3d
       -0.026548814 -0.055784203 0.10058374 0.073559254
000080 21 f3 0a 3c 47 68 b6 bd 9b 6d 2f 3d d5 ff ae 3d
       0.008480818 -0.08906608 0.042829137 0.0854489
000090 b8 c8 a2 3c d7 94 ad 3b 26 26 d3 bc 2a a5 94 3d
       0.0198711 0.005297284 -0.025775027 0.07258065
0000a0 b6 f9 cb 3c 3f 83 5e 3d df f4 8a bd 37 af b0 bd
       0.024899345 0.054324385 -0.06784987 -0.086271696
0000b0 5a d0 00 bb 26 59 1a 3d a5 e8 96 bd db 39 6b bd
       -0.0019655437 0.037682675 -0.07368592 -0.057428222
0000c0 0d db e6 3c 81 4d e2 bc 2d c8 d3 bb f0 c5 b7 3d
       0.028180623 -0.027624847 -0.006463072 0.089733005
0000d0 18 e5 b4 ba 43 cf f0 3c 6a 19 a1 3d ed 80 64 3d
       -0.0013801185 0.029395705 0.078661755 0.055787016
0000e0 51 e6 aa bd 1a 69 64 bd 89 72 7e bd 3f 43 32 3d
       -0.083447106 -0.055764295 -0.062120948 0.043521162
0000f0 35 12 11 be 50 60 79 3c 3c 7b 02 3c 1a 26 80 bd
       -0.14167102 0.015220717 0.007963952 -0.06257267

fc3.weight f4 [10, 64]
000000 10 eb 16 3e 68 b3 a1 bd 95 f2 bf 3d 8f 85 c6 3d
       0.14738107 -0.07895547 0.09372441 0.09693443
000010 37 3a 88 bc 7f e3 cf 3d 32 53 94 bc ad f7 1a 3e
       -0.016629322 0.10150813 -0.018106077 0.15133543
000020 6d d6 26 3e d4 56 d2 3d 4c 21 52 be ff f6 c7 3d
       0.16292734 0.102704674 -0.20520514 0.09763908
000030 a3 25 0d be 9e 34 9a bd 76 b7 f5 bd 3f 67 60 bd
       -0.13783889 -0.07529567 -0.11997883 -0.054785963
000040 f8 a5 04 3e b8 6c ac bd d8 65 74 be 22 f2 66 be
       0.12953937 -0.08419174 -0.23866975 -0.22553304
000050 c8 2e cc bd ab 5b 3b bd fa 07 af bd 43 88 e2 3d
       -0.0996986 -0.04574172 -0.08546443 0.11061146
000060 aa 3d 12 3e 3c de 22 be 56 99 ab bd a4 5c 79 bd
       0.14281335 -0.15905088 -0.08378856 -0.060879365
000070 60 ca 99 bd 8e 02 36 3d a8 b5 d8 3d c4 6c 5e be
       -0.07509303 0.04443603 0.10581523 -0.21721178
000080 f4 06 af 3d 36 9f b6 ba dc 53 64 be 4e cc f9 bc
       0.08546248 -0.0013932947 -0.22297615 -0.030492928
000090 2e a5 fa bd e6 c6 8c be cc fc 08 3e 96 1f 3a bc
       -0.12238537 -0.27495497 0.13377684 -0.01136007
0000a0 7f 05 56 be d3 97 80 bd 6b 3d 82 3d 4d 1d 0e 3e
       -0.20900534 -0.06278958 0.06359371 0.13878365
0000b0 4b d0 15 be 97 d2 ef bc cf 9c e6 3d a0 1b 20 be
       -0.14630239 -0.029275222 0.112603776 -0.15635538
0000c0 a9 45 db 3d 22 9a da bd 55 df 05 3d 1e 8e 4f bc
       0.10706646 -0.1067393 0.03268369 -0.012668161
0000d0 9a fe 84 3b fe 72 67 bc 98 a1 26 be 6f e6 c1 bd
       0.004058671 -0.014126537 -0.1627258 -0.0946778
0000e0 59 05 0e be cd 55 f6 bd f0 8c cc bc 4e 03 e4 3b
       -0.13869227 -0.12028084 -0.024969548 0.0069584018
0000f0 80 a1 07 3e 13 00 0f 3e db d0 e7 3b 29 ad b6 3d
       0.13245201 0.13964872 0.007074458 0.089197464
000100 09 17 bd 3d fe f9 59 bd 77 7e 9d bd 75 61 e2 bd
       0.09232909 -0.053216927 -0.07690137 -0.11053745
000110 4f 0d 85 bd d1 af 3d be 73 e7 0e 3c da fb 6d be
       -0.06496679 -0.185241 0.008722174 -0.23240605
000120 4c cd fd bd ba 94 53 3d 04 40 28 3a 6c 65 01 be
       -0.12392673 0.05165551 0.00064182305 -0.12636346
000130 ba 78 e1 bc a7 0d 0b be b9 d0 76 be 3b f8 cf bd
       -0.027523387 -0.13579427 -0.24103059 -0.10154768
000140 be 01 20 be 51 0c 1c be cc c3 dc 3d 27 00 5b 3d
       -0.15625665 -0.15239073 0.10779533 0.053466942
000150 d2 70 10 3e df d0 0e 3e be b8 dc 3d 3f 6f 17 be
       0.14105538 0.13946865 0.10777424 -0.14788531
000160 13 c9 a8 3d d0 1d 34 3e 41 b0 1c 3d 5d d9 68 be
       0.08241477 0.17589498 0.038254026 -0.22739168
000170 0c 42 d4 bd d8 82 26 be 8a 8d fd 3c e1 8e 0c 3e
       -0.1036416 -0.1626085 0.03095128 0.13726379
000180 08 9d 83 3d 55 55 5b bd d6 6c e0 3d 0c 9e 2a bd
       0.06426436 -0.053548176 0.10958259 -0.04165463
000190 85 e4 2c be 8b 2d 0f be 6b ef 85 3d 43 55 05 3e
       -0.16884048 -0.13982217 0.06539806 0.13020806
0001a0 f8 cf c9 3d 2a 95 1b be 57 9f 67 bc ea d3 1c 3e
       0.0985412 -0.1519362 -0.014137111 0.15315214
0001b0 ff 10 3b bd 19 0b 19 be 86 69 3d bc 4f a0 52 3d
       -0.045670506 -0.1494564 -0.011560803 0.051422413
0001c0 ae 8d 3d 3d 0b 50 0a be 29 d4 2a 3e aa b7 87 bd
       0.046277694 -0.13507096 0.16682495 -0.06626828
0001d0 b3 04 cc 3d 1d b7 89 bc 9c ae 98 3d d0 d6 63 3c
       0.09961834 -0.016810948 0.07455179 0.013906196
0001e0 71 46 00 3e 26 03 89 3c e6 a7 17 3d 00 6d ae 3d
       0.12526871 0.016725134 0.037025355 0.08516884
0001f0 87 96 cf 3d 88 03 9b 3d 5b 7d a3 3d 01 ee b3 3c
       0.10136133 0.07569033 0.07982894 0.021964075
000200 13 bb 4a be 2d dc ee 3d 71 fe 70 3e f7 38 d6 bd
       -0.19797926 0.11663089 0.23534562 -0.10460084
000210 92 af 09 3e 55 71 e0 bc 0a f2 86 be df 2f 1b 3e
       0.13445881 -0.02739779 -0.26356536 0.1515498
000220 0f fd dc bc 40 db 81 be ee b7 7b be 7d 73 f0 bd
       -0.026976136 -0.25362587 -0.24581882 -0.11740778
000230 1e 43 ad 3d ba a5 0e 3e a3 ba 9c 3c b6 1b 33 3e
       0.08460067 0.13930407 0.019131964 0.1749104
000240 ba bc c5 3c 85 0d 13 3c a4 68 9d 3d a2 00 59 3c
       0.024137843 0.008975391 0.07685974 0.01324478
000250 d5 53 35 bd fe 4b 08 3e b1 d8 23 3e 26 d9 d0 3b
       -0.0442694 0.13310239 0.1600063 0.0063735424
000260 0e f5 a4 3d 3f 68 21 be c6 0d 07 be 62 6b 1c bd
       0.08054553 -0.15762423 -0.13188848 -0.038188346
000270 a7 6a 7d bc 5c 36 5d bd 03 5a c2 bd f8 e8 a1 bd
       -0.015467322 -0.05400692 -0.094898246 -0.079057634
000280 4b 42 c8 3c 08 6c d2 bd cc 8e a7 3c f5 ca ba 3b
       0.024445673 -0.102745116 0.020453833 0.005700464
000290 20 12 fd bc b8 84 7f bb 96 24 0c bd 24 cf ce 3d
       -0.030892432 -0.0038989019 -0.03421458 0.10098103
0002a0 1b 13 04 3d 51 17 57 bc 02 9a d1 bc a3 79 2e 3e
       0.032244783 -0.013128118 -0.025586132 0.17038588
0002b0 b8 30 12 bd 1c fb 03 be ed d2 10 3c ae f5 5b 3e
       -0.035690993 -0.1288876 0.008839351 0.21480438
0002c0 c5 29 79 be 4c c5 2b 3e 44 b9 ef 3c 30 05 bc 3d
       -0.2433234 0.16774482 0.029263146 0.09180677
0002d0 9d cd 3c be f8 90 6f be 4b 62 30 3d 60 89 aa bd
       -0.1843781 -0.23395145 0.04306249 -0.083269835
0002e0 47 c2 b1 bd 17 73 cd bc 2e 0d a8 3d f4 85 38 bd
       -0.086796336 -0.025079293 0.08205639 -0.045049623
0002f0 3d d7 bc bd d2 af 8a 3d 08 96 01 be 46 4a ef 3d
       -0.09220741 0.06771816 -0.12654889 0.116840884
000300 75 33 5c 3d 62 01 2c 3e 3c eb 01 bd 67 8e 15 bd
       0.05376001 0.16797403 -0.031718478 -0.03651276
000310 3d 64 39 bc cd 0f 67 3d f2 50 04 be fb f8 10 be
       -0.011315403 0.056411553 -0.12921503 -0.14157479
000320 ab e2 06 be e6 f6 e4 3d 18 d4 82 be 08 d5 00 bc
       -0.13172404 0.11179905 -0.2555244 -0.007863291
000330 3e ea f4 bd b5 a9 98 3d 0f a9 03 be 0d bb 9f bd
       -0.11958741 0.07454244 -0.1285746 -0.07799349
000340 6b 9d 2d be 82 c6 dc 3d 28 26 10 3e 99 5e 00 3e
       -0.16954581 0.1078005 0.14077055 0.12536086
000350 69 0a 81 bd 31 e6 41 3c 63 43 2c be 15 d3 03 3e
       -0.06300814 0.011834667 -0.16822581 0.1287349
000360 a3 20 47 3d 7f c3 f0 bd 09 8c 0b be 79 94 0c 3d
       0.04861511 -0.11756038 -0.13627638 0.034321282
000370 8a a6 c2 bc 5d 42 5b 3d 17 41 f2 bd 7f 9c 1c be
       -0.023761053 0.053530086 -0.11828821 -0.15294074
000380 91 7b 1d 3e 71 c0 8b 3d bd b2 a0 3d 0e e5 dc 3d
       0.15379168 0.06823815 0.078465916 0.10785876
000390 6d b9 95 bd 07 ad d4 3d 86 bb be 3d b9 4f f2 3d
       -0.07310758 0.10384565 0.09313111 0.11831612
0003a0 dc fc 19 be 04 58 d2 3d e4 b7 00 be 54 03 1b 3d
       -0.15037864 0.10270694 -0.12570149 0.03784497
0003b0 fa ee f7 bd c9 b0 56 be 5f 7a 01 be 79 5a c9 bd
       -0.12106128 -0.20965876 -0.12644337 -0.098317094
0003c0 d5 80 0d be 8f b6 62 be 96 06 99 be cd 38 bf bd
       -0.13818677 -0.22139953 -0.29887837 -0.09337006
0003d0 59 7a 2b 3e 0d f0 0f be 57 2e 57 ba 4b 56 d6 3d
       0.1674589 -0.14056416 -0.00082085043 0.10465678
0003e0 64 cf 02 3e dc d5 86 3d 7d 38 2e 3c 2e 06 1f 3e
       0.12774426 0.06583759 0.010633585 0.15529701
0003f0 e3 2c f5 bd 3c 6d 28 3d 97 8e 4d be ff 32 e7 3d
       -0.11971452 0.0411198 -0.20073925 0.112890236

fc3.bias f4 [10]
000000 b5 6e e0 bd d3 36 87 3d 65 9e b8 bd db dd 9e bb
       -0.10958616 0.06602254 -0.09014586 -0.0048482246
000010 4c 03 b4 bd 75 28 88 bd 83 cd d1 bd f3 d4 a9 3d
       -0.08789691 -0.066483416 -0.102442764 0.0829257
000020 6e 31 f7 3d 03 8a d8 bd
       0.12069975 -0.10573199
