data/models/three-layer_hidden-size-256-128_params.pth (torch, 944073 bytes, 6 tensors)

fc1.weight f4 [256, 784]
-0.02489213 0.030120635 0.018945685 0.014101826 -0.011436137 -0.0030828286 -0.025398308 0.027708104
-0.00029615645 0.014554306 0.02684134 0.019792525 -0.0040504336 -0.0056339344 0.025789604 0.0041815406
-0.012901849 0.027214011 0.013037307 0.024672808 0.034806013 -0.0022288088 -0.02504854 0.022178477
0.009538277 -0.003433059 -0.022473836 0.0077393265 0.00061257277 0.023173055 -0.0125937015 0.0136177195
-0.00054945156 -0.024498226 -0.030863063 0.024156284 -0.03396911 -0.0014296896 0.013620984 -0.03650694
0.026562443 0.032680564 0.0003156043 0.017826915 0.008969578 -0.022478936 0.03699682 -0.00016784259
-0.012341879 -0.034037806 -0.0069794934 -0.009763538 0.030745594 0.005755304 0.006368756 -0.012287804
0.040868804 -0.013111414 0.004992614 0.03831435 0.024119494 0.0121583445 -0.01922221 -0.022568826
0.020214675 0.008631538 -0.012906128 -0.010737359 -0.03839299 -0.043464404 -0.028581005 -0.039023824
0.002395295 0.0079375915 -0.05388598 -0.01619626 -0.051542714 -0.040280435 -0.04209898 0.0142540345
-0.029135685 -0.013013568 -0.010291906 0.012220793 0.022829948 0.005782668 0.015885595 -0.0025741006
0.014770563 0.0042328397 -0.035453092 -0.023746995 -0.047009572 -0.038025904 -0.0058720307 -0.03820044
-0.07625748 -0.06044688 -0.09459622 0.008881405 -0.021819547 -0.0052902717 -0.022927359 -0.053043623
0.007674956 -0.045278344 -0.0036159472 -0.0013685713 -0.0023988953 -0.021400258 0.029403044 -0.025977178
-0.018823134 -0.011116844 0.0009559278 -0.02646179 -0.02742004 0.010925 -0.049250506 -0.046285957
-0.028417146 -0.013655977 -0.0075547867 -0.0038104637 0.028687028 0.0060473797 0.054956097 0.06368104
0.06060382 0.017630188 -0.025757363 0.0067966674 0.011603041 -0.008361357 0.027629986 0.00606611
0.020641321 -0.016371692 0.02148458 0.011023897 0.015308924 -0.0041876663 0.040500544 0.009945137
-0.0014601029 -0.043897938 -0.020040045 -0.011828836 -0.029824309 0.022764284 -0.0046391548 0.008201681
0.01185181 0.03775578 -0.0057911654 0.056086738 0.019005535 0.049237255 0.009957572 -0.0011296646
0.020067316 0.076262206 0.018614527 -0.000109774715 -0.0042193057 -0.0029651495 0.023115844 0.0053444896
-0.028971335 -0.0025989327 -0.012315446 -0.0014769987 0.016676297 0.0148222 -0.0075718714 -0.023572681
-0.023931123 -0.017358964 -0.034951918 -0.010115439 -0.06336026 -0.015074786 -0.044113785 0.013617897
0.043170564 0.045990694 -0.055035237 0.00799335 -0.019221822 -0.0045776395 0.07295746 0.09168431
0.01082501 -0.023593457 -0.030665416 -0.0073556085 0.035200417 0.03986105 -0.0053439178 0.020174474
0.01195519 -0.014336536 -0.0063747526 -0.07637824 0.0060866475 -0.025287742 -0.05576503 -0.023186129
-0.038785867 -0.047294464 -0.052210744 -0.023010531 -0.021789493 0.0077168206 -0.0054042223 0.018345678
-0.020329958 0.00936353 0.017117782 0.07027963 0.043355864 0.00397464 -0.007085656 -0.022890873
0.015465863 -0.012811851 -0.008775772 -0.03314606 -0.0025553934 -0.028453432 0.0031985638 -0.051103905
-0.08123326 -0.03142591 -0.07290804 -0.03955397 -0.05800976 -0.0047610113 -0.0056211017 -0.030566221
-0.045213196 -0.027363019 0.0077376915 0.005307253 -0.019577883 0.015577997 0.037905082 0.035017047
0.03300999 0.03367998 0.019818889 -0.021132775 -0.0070461263 0.0069972537 0.02630488 -0.0067956336
00000000: 95ea cbbc 8dbf f63c fb33 9b3c 580b 673c
00000010: a35e 3bbc 4809 4abb 1d10 d0bc 1bfc e23c
00000020: 7245 9bb9 2f75 6e3c 5fe2 db3c ef23 a23c
00000030: 80b9 84bb de9c b8bb b844 d33c 4e05 893b
00000040: 4762 53bc ebef de3c 6e9a 553c a11e ca3c
00000050: c090 0e3d 3511 12bb 9932 cdbc a3af b53c
00000060: 6f46 1c3c 2cfd 60bb 0d1b b8bc 2d9a fd3b
00000070: 1095 203a 6bd5 bd3c d055 4ebc db1c 5f3c
00000080: 1209 10ba 81b0 c8bc 89d4 fcbc 66e3 c53c
00000090: 3223 0bbd 6c64 bbba 8c2a 5f3c 4d88 15bd
000000a0: 7b99 d93c 0edc 053d b177 a539 c009 923c
000000b0: 23f5 123c bf25 b8bc fa89 173d e7fe 2fb9
000000c0: 9835 4abc 3a6b 0bbd 3cb4 e4bb 3ff7 1fbc
000000d0: 2fde fb3c fd96 bc3b ffb0 d03b c952 49bc
000000e0: 0c66 273d 42d1 56bc 1599 a33b 82ef 1c3d
000000f0: 3f96 c53c cb33 473c e577 9dbc 42e2 b8bc
00000100: 3f99 a53c 4b6b 0d3c 3974 53bc bfeb 2fbc
00000110: f841 1dbd bb07 32bd b622 eabc 72d7 1fbd
00000120: 62fa 1c3b ac0c 023c 8cb7 5cbd 05ae 84bc
00000130: 741e 53bd 19fd 24bd fb6f 2cbd c189 693c
00000140: f6ad eebc dc36 55bc 629f 28bc b939 483c
00000150: df05 bb3c 897c bd3b 8222 823c 3eb2 28bb
00000160: 3b00 723c a2b3 8a3b 4337 11bd 0f89 c2bc
00000170: 1c8d 40bd 0dc1 1bbd 2a6a c0bb 1178 1cbd
00000180: e22c 9cbd 2697 77bd aabb c1bd 5083 113c
00000190: e8be b2bc 045a adbb 28d2 bbbc 4544 59bd
000001a0: 337e fb3b c975 39bd 87f9 6cbb a261 b3ba
000001b0: c936 1dbb 984f afbc a7de f03c 17ce d4bc
000001c0: f932 9abc 6c23 36bc 3b97 7a3a 65c6 d8bc
000001d0: fe9f e0bc c5fe 323c e6ba 49bd 5896 3dbd
000001e0: 13cb e8bc 52bd 5fbc 258e f7bb f9b8 79bb
000001f0: 0f01 eb3c 1929 c63b a519 613d 356b 823d
00000200: b63b 783d 2f6d 903c 1b01 d3bc 94b6 de3b
00000210: ae1a 3e3c 13fe 08bc 4858 e23c 38c6 c63b
00000220: fd17 a93c ed1d 86bc 6e00 b03c 939d 343c
00000230: 48d2 7a3c b138 89bb e6e3 253d eef0 223c
00000240: ec60 bfba 53ce 33bd 052b a4bc bccd 41bc
00000250: 1c52 f4bc 2a7c ba3c 0d04 98bb 5860 063c
00000260: 182e 423c cea5 1a3d d1c3 bdbb 35bb 653d
00000270: 7fb1 9b3c 01ad 493d 1625 233c 4111 94ba
00000280: 3664 a43c 5c2f 9c3d 7e7d 983c da36 e6b8
00000290: 1a42 8abb f452 42bb 705d bd3c d420 af3b
000002a0: 4b55 edbc db52 2abb b9c6 49bc da97 c1ba
000002b0: bb9c 883c d0d8 723c 761d f8bb 7f1b c1bc
000002c0: 340b c4bc 6334 8ebc be29 0fbd 3abb 25bc
000002d0: 06c3 81bd 3cfc 76bc a8b0 34bd 9a1d 5f3c
000002e0: 9ed3 303d bd60 3c3d a16c 61bd 8af6 023c
000002f0: 1577 9dbc 0600 96bb b96a 953d fcc4 bb3d
00000300: 625b 313c 1147 c1bc 0a36 fbbc 5107 f1bb
00000310: 502e 103d 5745 233d 081c afbb f044 a53c
00000320: b4df 433c cae3 6abc 4de3 d0bb 326c 9cbd
00000330: 8072 c73b 3d28 cfbc df69 64bd d6f0 bdbc
00000340: eedd 1ebd d7b7 41bd efda 55bd 9580 bcbc
00000350: e17f b2bc 62dd fc3b e715 b1bb ad49 963c
00000360: 038b a6bc 7e69 193c 973a 8c3c c4ee 8f3d
00000370: eb95 313d b23d 823b ca2e e8bb a485 bbbc
00000380: 8864 7d3c cce8 51bc 41c8 0fbc 2ac4 07bd
00000390: 6378 27bb 2c17 e9bc ff9e 513b 5452 51bd
000003a0: a05d a6bd 74b8 00bd cf50 95bd 5803 22bd
000003b0: a49b 6dbd 4202 9cbb 3831 b8bb 0366 fabc
000003c0: 7931 39bd 6928 e0bc 768c fd3b 77e8 ad3b
000003d0: cc61 a0bc db3a 7f3c 5c42 1b3d 096e 0f3d
000003e0: 7c35 073d 05f4 093d 395b a23c a41e adbc
000003f0: 31e3 e6bb 3849 e53b 557d d73c e8ad debb

fc1.bias f4 [256]
0.010279731 -0.004595851 -0.003032413 -0.026948553 -0.033861883 -0.040858395 -0.040080816 -0.041380715
-0.0021850334 -0.039341815 -0.0046737595 -0.04618778 0.025481569 -0.0356697 -0.00085676945 -0.014988529
-0.010390833 -0.021396624 -0.024405142 -0.038675107 -0.0296362 -0.019252539 -0.03550403 -0.03966379
0.0073268698 -0.030499177 0.033454068 -0.012509332 0.014855678 0.012169813 0.007153935 0.024393138
-0.03912687 -0.0091017 0.0199306 0.016095174 -0.004339757 0.017357757 0.0084853675 0.013006352
-0.05351713 -0.009971643 0.029939277 0.006352693 -0.00888757 0.012920232 0.023076462 0.02986455
-0.023699401 -0.059263915 -0.0028815598 -0.008090448 -0.017599752 0.0039819493 -0.01388655 -0.040190507
-0.0025099393 0.020862764 0.002329437 -0.019967917 -0.017875507 0.032447603 0.02696995 -0.03505747
0.0117455525 -0.04042388 -0.03771234 -0.007600847 -0.002051925 -0.029330999 0.015203559 0.014693969
0.009172861 0.02590762 -0.0393401 -0.017737588 0.007819485 -0.013177188 0.0015219547 -0.039282575
-0.019508416 -0.0049630045 -0.028790593 -0.0012810099 0.010748198 -0.0008729288 -0.005632448 0.022696566
-0.0013634115 0.015144275 -0.033221688 -0.015282098 -0.03740048 0.040526867 -0.009522933 -0.002147382
0.003853536 -0.023712996 -0.047557957 -0.010973274 -0.012775937 -0.01155511 -0.025293307 -0.014477826
0.007394193 -0.012414694 -0.006849307 -0.041364703 -0.0319754 0.02669557 -0.041636754 -0.03735352
-0.02335884 -0.005483702 0.004897694 0.0071852487 -0.044790115 0.01120859 -0.003697298 -0.008197439
-0.031660885 0.013721687 -0.028730383 -0.026150865 -0.032312322 -0.00060492184 -0.018717004 0.015077697
-0.03904512 -0.02415733 -0.020358706 -0.0031912003 -0.03466225 -0.0015124652 -0.01927941 0.018550372
0.009465933 -0.021867462 0.0146229295 -0.037064653 -0.004994603 -0.05525916 0.013947216 -0.012401707
-0.0489227 0.024967853 -0.039646957 0.015334392 0.0072703906 0.027769469 -0.00039737247 -0.033239607
0.012337028 0.031420324 -0.016290255 -0.03593134 0.012730615 0.010942954 -0.022070706 -0.0023656967
0.028362332 -0.017937342 -0.0020585915 -0.00037441746 0.0118480185 -0.04854291 0.028606057 -0.035930745
-0.020321196 -0.02517049 0.0039137215 0.023975698 0.014003382 -0.04024461 -0.029836003 0.0380047
-0.020084765 -0.018989902 -0.0028608912 -0.005192135 -0.042695004 0.015433176 0.008685817 0.029964916
0.024581091 -0.0100550335 -0.0016042204 0.0010013046 0.011882088 0.024875907 0.012910325 -0.017438497
-0.012218313 0.016734568 -0.025040278 0.030387655 -0.044173926 0.029694129 -0.0014819634 -0.016296107
0.0047689127 -0.014670279 -0.01348336 -0.028671015 0.01089811 0.0032506625 0.028244901 -0.036970858
-0.033088345 0.01862875 -0.010827593 0.029202843 -0.050592076 -0.041699827 -0.0041153035 -0.011851735
-0.014274655 0.013787745 -0.034765113 -0.020172331 -0.045957774 -0.0028981722 -0.027262056 0.02288883
0.021153528 -0.033049632 -0.030545462 0.0009895283 0.005300329 -0.028157769 -0.012231549 -0.0037906636
0.042679917 -0.028583614 0.0034475317 0.015187999 0.012105162 -2.9428356e-06 -0.034185488 0.007672818
-0.01554539 -0.042248882 -0.03648698 -0.019735103 0.0047058603 -0.004171709 0.00673386 -0.03318935
-0.016380494 0.016279811 0.020427946 0.0039142035 -0.018250963 -0.011988899 0.024869272 -0.015185053
00000000: 516c 283c cb98 96bb 73bb 46bb 36c3 dcbc
00000010: c2b2 0abd 225b 27bd c82b 24bd d37e 29bd
00000020: c732 0fbb e224 21bd 5626 99bb 662f 3dbd
00000030: b9be d03c 641a 12bd d398 60ba 7292 75bc
00000040: 503e 2abc f947 afbc 4bed c7bc ca69 1ebd
00000050: 9ec7 f2bc 80b7 9dbc ac6c 11bd 8076 22bd
00000060: 3d16 f03b 69d9 f9bc 2207 093d f1f3 4cbc
00000070: 3b65 733c e563 473c 8e6b ea3b 1ed4 c73c
00000080: 7f43 20bd 4c1f 15bc 7f45 a33c 07da 833c
00000090: 8534 8ebb db31 8e3c 3606 0b3c 9818 553c
000000a0: c734 5bbd 1a60 23bc 3743 f53c 402a d03b
000000b0: 2c9d 11bc 61af 533c d90a bd3c 80a6 f43c
000000c0: 3f25 c2bc b8be 72bd 8dd8 3cbb cc8d 04bc
000000d0: 5b2d 90bc 037b 823b 6a84 63bc cd9e 24bd
000000e0: cb7d 24bb 63e8 aa3c 78a9 183b c293 a3bc
000000f0: a86f 92bc c7e7 043d 16f0 dc3c 6c98 0fbd
00000100: 6b70 403c 8393 25bd 4178 1abd 8710 f9bb
00000110: 9779 06bb 9047 f0bc 5918 793c f9be 703c
00000120: c549 163c 383c d43c 1623 21bd 6b4e 91bc
00000130: 4c1d 003c 22e5 57bc 537c c73a c4e6 20bd
00000140: 1dd0 9fbc b3a0 a2bb 40da ebbc 8fe7 a7ba
00000150: 3619 303c 43d5 64ba 6690 b8bb 26ee b93c
00000160: 80b4 b2ba b11f 783c 7713 08bd c461 7abc
00000170: 3f31 19bd 80ff 253d 1306 1cbc 17bb 0cbb
00000180: 9b8b 7c3b c241 c2bc 22cc 42bd 3fc9 33bc
00000190: 2a52 51bc a551 3dbc e933 cfbc 6734 6dbc
000001a0: fd4a f23b 0067 4bbc 2770 e0bb 096e 29bd
000001b0: a3f8 02bd abb0 da3c 4d8b 2abd 0100 19bd
000001c0: 0a5b bfbc a0b0 b3bb d67c a03b 3c72 eb3b
000001d0: d775 37bd 3ca4 373c 5e4e 72bb 8d4e 06bc
000001e0: d8ae 01bd edd0 603c fb5b ebbc 573a d6bc
000001f0: ed59 04bd 9e93 1eba 6754 99bc 7208 773c
00000200: c7ed 1fbd 98e5 c5bc 4dc7 a6bc 7523 51bb
00000210: 01fa 0dbd e93d c6ba daef 9dbc f3f6 973c
00000220: 0017 1b3c 6423 b3bc 0395 6f3c 1bd1 17bd
00000230: c4a9 a3bb 6e57 62bd dd82 643c 8730 4bbc
00000240: 2b63 48bd 6289 cc3c d964 22bd 1a3d 7b3c
00000250: 753c ee3b cc7c e33c 6e56 d0b9 4126 08bd
00000260: 3f21 4a3c 99b2 003d 2473 85bc be2c 13bd
00000270: 1294 503c 134a 333c a0cd b4bc ce09 1bbb
00000280: 1f58 e83c 55f1 92bc 6fe9 06bb 764d c4b9
00000290: 311e 423c eed4 46bd 4057 ea3c 1e2c 13bd
000002a0: a378 a6bc 5832 cebc ad3e 803b af68 c43c
000002b0: 716e 653c 88d7 24bd a26a f4bc d1aa 1b3d
000002c0: ce88 a4bc b690 9bbc ca7d 3bbb c922 aabb
000002d0: f5e0 2ebd 6fdb 7c3c f54e 0e3c fc78 f53c
000002e0: 495e c93c debd 24bc b444 d2ba 353e 833a
000002f0: 17ad 423c 8fc8 cb3c d485 533c 2edb 8ebc
00000300: 522f 48bc ef16 893c 4521 cdbc 88ef f83c
00000310: b8ef 34bd 1a41 f33c 713e c2ba 6a7f 85bc
00000320: 8a44 9c3b 9c5b 70bc 50e9 5cbc 7adf eabc
00000330: fd8d 323c 1109 553b da61 e73c c16e 17bd
00000340: a587 07bd 529b 983c 3766 31bc cd3a ef3c
00000350: a339 4fbd 70cd 2abd abd9 86bb c82d 42bc
00000360: 3ee0 69bc fee5 613c dd65 0ebd 7240 a5bc
00000370: 383e 3cbd 43ef 3dbb ad54 dfbc 5b81 bb3c
00000380: 2a4a ad3c 0d5f 07bd 7a3a fabc 0fb3 813a
00000390: 62ae ad3b 1fab e6bc d666 48bc c86c 78bb
000003a0: 23d1 2e3d 2f28 eabc fcef 613b 16d7 783c
000003b0: bb54 463c 887d 45b6 1506 0cbd 436c fb3b
000003c0: 17b2 7ebc 2a0d 2dbd 5f73 15bd 83ab a1bc
000003d0: 9e33 9a3b d5b2 88bb b6a7 dc3b 8ef1 07bd
000003e0: 6330 86bc 3d5d 853c 8258 a73c b842 803b
000003f0: 0b83 95bc 166d 44bc a5ba cb3c bbca 78bc

fc2.weight f4 [128, 256]
0.0066163423 -0.08772525 0.034386534 -0.060789615 -0.03329788 -0.031975113 -0.07135163 -0.017339846
-0.019585505 0.1092842 0.02592464 0.031117467 0.02637894 -0.073435344 0.054122932 -0.098343715
-0.13535224 -0.097133055 0.038920432 0.06694458 -0.065186724 0.09067458 -0.06521251 0.039445408
0.05838429 0.067148305 -0.22016819 0.08345361 0.04316224 0.1362655 -0.009773823 -0.01189922
-0.17819849 -0.07703996 -0.07283649 -0.14164524 0.026730595 -0.06342511 -0.06297609 -0.055619456
0.14178623 -0.05830351 -0.044376217 -0.044111665 -0.0019568582 -0.014160579 -0.008351644 -0.017449727
0.10420049 -0.044234447 0.0068846648 -0.07386212 -0.06436015 0.05040242 -0.074877374 -0.07354801
-0.14862986 -0.06448232 0.03164404 0.061821885 0.07382063 -0.20097569 0.03991777 0.05252566
0.050885018 0.06322514 0.017739445 -0.14257151 -0.042487588 -0.14308284 0.108911514 0.053378496
0.009565706 0.06896747 -0.020360071 0.0051897685 -0.008192135 0.042541496 -0.03921014 0.05397721
-0.004465216 0.06502265 0.029322987 -0.0733706 -0.034641005 0.059085716 0.06650138 0.073700055
0.005680026 0.0046063936 -0.0009149089 0.09824263 -0.04519936 -0.08301887 0.008242167 0.077045605
-0.092022136 -0.036854483 0.08522208 -0.115750216 0.10257594 -0.094488315 -0.08602272 0.05458976
-0.2191494 0.0141602 0.008466404 -0.077469535 0.047483336 0.008112127 -0.22173506 -0.043164127
0.060231928 -0.011969695 0.047820646 -0.24475056 -0.092513666 -0.10049525 0.020743055 -0.07303063
-0.012523676 0.06636052 -0.054621782 -0.10400653 -0.11907013 0.009068876 -0.05344645 -0.009717435
-0.038973913 0.059878215 -0.0070920186 0.061567888 -0.006778417 0.11066363 -0.08375143 0.010892662
0.048402783 -0.0044364603 0.06401628 0.06946291 -0.07111394 0.00951607 0.031006908 0.040802862
0.11121863 -0.022053152 0.0053313575 0.093938425 0.06701329 0.015935402 0.10096271 0.05506888
-0.15976588 0.021169212 0.10343555 -0.08592331 -0.075400285 0.05023895 0.0007407117 0.026433397
-0.0050721657 0.011494535 -0.08946537 -0.05326624 -0.06619229 0.0079757925 0.051617675 0.027734373
-0.01092692 0.05679967 -0.004068188 -0.17192595 -0.036824483 0.019484507 0.012736688 0.03167951
-0.033131193 0.046717837 -0.27805457 -0.077586465 0.073103115 0.020674078 -0.08352058 -0.007846698
-0.07128003 0.002746782 0.07848571 -0.042562425 -0.048648164 0.068300895 -0.042110965 -0.08638294
0.029185854 -0.05976738 0.0076459325 -0.070112616 0.08117297 0.014668209 0.019235693 -0.018672388
0.009193294 -0.19823535 -0.035180293 -0.015692454 -0.03374838 0.038854383 0.023124496 -0.08819392
0.018124435 0.056407984 0.0038027614 0.003302342 0.0463396 -0.020545237 0.08631247 -0.056095876
0.041192308 0.105377354 0.02348521 -0.0049889325 0.062295254 0.034746222 0.0490993 0.03534401
-0.15677874 -0.07883425 -0.05857918 -0.089495234 -0.049222242 0.002737377 0.033778157 0.012402303
0.0074330936 0.018128712 -0.13135809 0.105689265 0.01027652 0.028834138 0.1922725 -0.020039527
-0.07878254 -0.04153757 0.026299654 -0.094872855 -0.040792122 0.03805951 -0.04717392 -0.030521618
0.056532886 0.07514423 0.069547884 -0.10040638 0.09405418 0.02279495 0.058101766 0.05601031
00000000: e7cd d83b 4ca9 b3bd e5d8 0c3d 88fe 78bd
00000010: 5c63 08bd 56f8 02bd ce20 92bd 4b0c 8ebc
00000020: c871 a0bc 65d0 df3d e95f d43c 0fea fe3c
00000030: a618 d83c 4565 96bd 02b0 5d3d 6e68 c9bd
00000040: c799 0abe b2ed c6bd 086b 1f3d 3d1a 893d
00000050: 9e80 85bd 98b3 b93d 238e 85bd 8291 213d
00000060: 5e24 6f3d 0d85 893d c573 61be bae9 aa3d
00000070: e4ca 303d 2f89 0b3e 6322 20bc f2f4 42bc
00000080: aa79 36be 20c7 9dbd 4c2b 95bd 730b 11be
00000090: 1ffa da3c 06e5 81bd 9cf9 80bd 3ad1 63bd
000000a0: 6930 113e a9cf 6ebd d6c3 35bd 6fae 34bd
000000b0: a23e 00bb c601 68bc 55d5 08bc bbf2 8ebc
000000c0: 1167 d53d 2e2f 35bd c198 e13b 0645 97bd
000000d0: 41cf 83bd c572 4e3d 4f59 99bd 57a0 96bd
000000e0: 6d32 18be 4e0f 84bd 2e9d 013d f238 7d3d
000000f0: 452f 973d 92cc 4dbe d180 233d 2525 573d
00000100: cf6c 503d 2f7c 813d 5052 913c 44fe 11be
00000110: 7707 2ebd 4f84 12be 000d df3d 69a3 5a3d
00000120: 7bb9 1c3c d13e 8d3d 2aca a6bc ef0e aa3b
00000130: 4e38 06bc fe3f 2e3d d09a 20bd 3517 5d3d
00000140: f250 92bb 982a 853d c336 f03c 5343 96bd
00000150: bae3 0dbd dd03 723d e031 883d 0ef0 963d
00000160: 831f ba3b 3bf1 963b 7fd6 6fba 6f33 c93d
00000170: f722 39bd cc05 aabd 270a 073c 16ca 9d3d
00000180: 1a76 bcbd baf4 16bd ea88 ae3d 730e edbd
00000190: 5613 d23d 1783 c1bd ae2c b0bd 8399 5f3d
000001a0: b368 60be 2f00 683c acb6 0a3c 59a8 9ebd
000001b0: e37d 423d bae8 043c 840e 63be decc 30bd
000001c0: c1b5 763d 8a1c 44bc 95df 433d e49f 7abe
000001d0: ce77 bdbd 74d0 cdbd 57ed a93c 1591 95bd
000001e0: 1b30 4dbc 06e8 873d 17bb 5fbd 6001 d5bd
000001f0: 0adb f3bd 9f95 143c aaea 5abd e035 1fbc
00000200: 1ca3 1fbd dc42 753d 2a64 e8bb 9c2e 7c3d
00000210: 7c1d debb 9da3 e23d df85 abbd 2377 323c
00000220: ff41 463d ba5f 91bb f81a 833d 9242 8e3d
00000230: 2fa4 91bd 4ae9 1b3c 3302 fe3c e720 273d
00000240: 98c6 e33d d0a8 b4bc abb2 ae3b ca62 c03d
00000250: 443e 893d f68a 823c 8ac5 ce3d e88f 613d
00000260: ab99 23be 0e6b ad3c 05d6 d33d 8ff8 afbd
00000270: 776b 9abd 5bc7 4d3d 522c 423a da8a d83c
00000280: 6934 a6bb 9353 3c3c 9f39 b7bd b32d 5abd
00000290: d38f 87bd e6ac 023c 0e6d 533d 3233 e33c
000002a0: d306 33bc c5a6 683d 6f4e 85bb 5b0d 30be
000002b0: 45d5 16bd f99d 9f3c 8bad 503c 60c2 013d
000002c0: 93b4 07bd 345b 3f3d 2b5d 8ebe a7e5 9ebd
000002d0: 16b7 953d af5c a93c d60c abbd 708f 00bc
000002e0: 44fb 91bd 5b03 343b 1ebd a03d f055 2ebd
000002f0: 4c43 47bd 57e1 8b3d 8c7c 2cbd 8ae9 b0bd
00000300: 2c17 ef3c a4ce 74bd bb8a fa3b 3497 8fbd
00000310: 043e a63d ed52 703c 2c94 9d3c d6f6 98bc
00000320: 789f 163c 35fe 4abe 3619 10bd 768d 80bc
00000330: be3b 0abd c625 1f3d 956f bd3c 049f b4bd
00000340: b279 943c 0f0c 673d c037 793b 1b6c 583b
00000350: 98ce 3d3d 7c4e a8bc 98c4 b03d cac4 65bd
00000360: 44b9 283d 15d0 d73d 0e64 c03c 337a a3bb
00000370: 4f29 7f3d 0e52 0e3d 591c 493d e1c4 103d
00000380: 9b8a 20be da73 a1bd b9f0 6fbd 4749 b7bd
00000390: 439d 49bd 9165 333b f75a 0a3d 0733 4b3c
000003a0: 4f91 f33b aa82 943c bc82 06be 9d73 d83d
000003b0: d95e 283c 9235 ec3c 15e3 443e ef29 a4bc
000003c0: be58 a1bd 4d23 2abd 5f72 d73c b34c c2bd
000003d0: a415 27bd 4ae4 1b3d 7139 41bd 7908 fabc
000003e0: 078f 673d 38e5 993d 1f6f 8e3d dca1 cdbd
000003f0: 7a9f c03d 7abc ba3c 1efc 6d3d 116b 653d

fc2.bias f4 [128]
0.0469645 0.042583413 0.04948589 -0.08745529 -0.023822915 -0.018616088 0.035254322 -0.015348168
-0.014544482 0.12899235 -0.008244317 0.031273905 0.060021088 -0.09565872 0.06289981 -0.05757694
-0.0030118527 0.05090499 -0.050902996 -0.09290768 -0.0369231 0.03348036 0.029075822 -0.036840137
-0.0043572965 0.04865161 -0.027061077 0.004427666 -0.05878805 0.03181811 0.004612183 0.069474466
0.03265087 -0.0758172 0.03438017 -0.0056413976 -0.018868849 -0.08141184 -0.02047028 -0.010425983
0.01098975 -0.067097306 0.04068639 0.018620264 -0.059943527 0.06507677 0.06716462 -0.12521523
-0.069655776 0.082977764 -0.058668576 -0.04169157 -0.01558569 0.115602046 0.0761686 0.08492823
0.059373647 -0.06859268 -0.03064443 -0.011373161 0.02736407 0.007488506 0.053212356 -0.0077351667
0.0026397668 -0.01960498 -0.079589225 0.014201775 0.079951465 0.13406001 0.028808739 0.0017936532
0.0365183 -0.024357853 0.053101633 -0.06482237 -0.06171781 0.0135245975 -0.046817105 0.07536523
-0.049550004 0.03383722 -0.011449168 0.052286755 0.042262755 -0.005596188 -0.04189146 0.06834904
-0.012959571 -0.028771117 -0.06880158 0.044538304 0.08688025 -0.004094038 0.039180253 -0.04138094
-0.0062969 0.0100431405 0.018694015 -0.0033350908 -0.033449307 0.06330359 -0.019972961 -0.01666911
-0.0001754518 -0.044337276 0.035592496 0.04782022 -0.039722756 0.061627977 0.051204592 -0.024572026
-0.022667287 0.0979302 0.092878185 -0.011038875 0.05985421 -0.02103532 0.03780659 -0.08509448
0.08482542 -0.06677783 0.012474182 -0.006014301 -0.020182574 0.033017434 0.054470386 0.025738202
00000000: d95d 403d f26b 2e3d b7b1 4a3d c21b b3bd
00000010: 4628 c3bc c480 98bc d666 103d e276 7bbc
00000020: fb4b 6ebc 9216 043e 2c13 07bc 1119 003d
00000030: acd8 753d b8e8 c3bd 9ed1 803d ccd5 6bbd
00000040: 8162 45bb c081 503d a97f 50bd 6246 bebd
00000050: ad3c 17bd b422 093d 6b30 ee3c afe5 16bd
00000060: a7c7 8ebb e946 473d 31af ddbc f415 913b
00000070: bdcb 70bd b553 023d cc21 973b a148 8e3d
00000080: ebbc 053d 0c46 9bbd 39d2 0c3d 79db b8bb
00000090: d892 9abc 40bb a6bd 4ab1 a7bc bed1 2abc
000000a0: 5a0e 343c 506a 89bd c6a6 263d 8689 983c
000000b0: 5887 75bd f846 853d 9b8d 893d 6c38 00be
000000c0: b0a7 8ebd 3ff0 a93d 764e 70bd c8c4 2abd
000000d0: 1f5b 7fbc c4c0 ec3d 48fe 9b3d daee ad3d
000000e0: c831 733d 527a 8cbd 070a fbbc 7f56 3abc
000000f0: 9d2a e03c 2462 f53b 33f5 593d 4877 fdbb
00000100: f0ff 2c3b 9f9a a0bc adff a2bd 90ae 683c
00000110: 98bd a33d 0747 093e 4e00 ec3c 0419 eb3a
00000120: 3794 153d 1f8a c7bc 1981 593d 97c1 84bd
00000130: d0cb 7cbd 4696 5d3c 4bc3 3fbd 1659 9a3d
00000140: f2f4 4abd e698 0a3d 4b95 3bbc a32a 563d
00000150: b61b 2d3d 3a60 b7bb 6196 2bbd 95fa 8b3d
00000160: 6154 54bc 68b1 ebbc d8e7 8cbd cc6d 363d
00000170: 46ee b13d 4827 86bb 797b 203d 0f7f 29bd
00000180: 3a56 cebb fc8b 243c 3124 993c 8a91 5abb
00000190: 2402 09bd 50a5 813d 569e a3bc a88d 88bc
000001a0: 7cf9 37b9 019b 35bd 70c9 113d 23df 433d
000001b0: 54b4 22bd 9e6d 7c3d e8bb 513d 464b c9bc
000001c0: bfb0 b9bc a18f c83d eb36 be3d 66dc 34bc
000001d0: b029 753d 4352 acbc 15db 1a3d 0446 aebd
000001e0: f3b8 ad3d d1c2 88bd 8360 4c3c 9d13 c5bb
000001f0: ed55 a5bc 4a3d 073d 571c 5f3d ecd8 d23c

fc3.weight f4 [10, 128]
0.029561957 -0.112275474 0.046679135 -0.024933517 -0.111030586 0.12433103 0.110785134 -0.05811682
-0.067103885 -0.12615912 -0.1621731 0.07271889 -0.059371438 -0.0111477375 -0.03226648 -0.17290393
-0.039963912 -0.1037377 -0.112888016 0.0726081 0.004891628 -0.1080677 -0.12173638 -0.046113264
-0.05444609 0.08072874 -0.1340364 0.13196313 0.015818454 -0.044473037 0.020492202 0.03888408
-0.16630934 0.043390073 -0.02858404 -0.026641112 -0.012782162 -0.2130771 -0.10516227 -0.0983763
0.048293307 0.040559627 -0.09755652 -0.13315776 0.077976435 0.07099472 -0.04823306 -0.026568858
0.0023741745 -0.014084014 0.09889599 -0.15585192 -0.07051951 0.0064631277 0.13545245 -0.09066122
-0.027224582 -0.015626576 0.016485197 0.11381216 -0.10779132 0.023902472 -0.00031321886 -0.059169114
0.09346816 -0.01812467 -0.082902886 0.08982274 -0.10694217 -0.061219655 0.063634336 -0.022374628
-0.11180332 -0.072136335 -0.093160644 0.11315904 -0.06433053 -0.07195678 -0.031205209 -0.028598987
-0.07398762 -0.13021217 -0.029001903 -0.07323232 -0.011326894 0.09526939 0.11494512 -0.08552668
-0.19955294 0.1137669 0.05198413 0.12897792 -0.15819982 0.0015766396 0.09185033 0.08999559
0.04108512 0.015645323 -0.07526857 -0.085278936 0.01763103 0.10808309 0.058901194 -0.072679125
0.029355926 0.10351411 -0.011298955 -0.26266038 -0.051832307 -0.026293267 0.03744511 -0.04593792
0.002837055 0.056365248 0.021581478 0.09583196 -0.014985668 0.08364307 -0.05446293 -0.14984351
-0.025249192 0.039256882 0.020032397 0.09105385 0.06673429 -0.11759015 -0.07979394 -0.043329097
0.060200274 -0.09393562 0.070417926 0.029401425 0.1116888 0.10116577 0.0074078846 0.1095082
0.15880105 -0.03318327 0.11646124 -0.16661987 -0.15127361 0.13670997 0.07889304 0.05734218
-0.054479588 0.0041298377 -0.062460065 -0.06776088 -0.007152775 -0.017831044 0.07133808 -0.13526529
-0.0032546078 -0.024668835 -0.014490452 0.02195168 -0.07874457 0.12500148 -0.043549832 -0.09316537
0.062408686 0.11248237 -0.03880246 0.04673633 -0.023031522 -0.085765034 -0.04768328 0.06389723
0.11658425 -0.122538455 0.06769624 -0.08147947 -0.026035972 -0.03372603 -0.01667118 0.021203054
-0.04647851 -0.03910549 -0.30518827 0.025663646 0.09592347 -0.022596264 -0.0693063 -0.0038978956
-0.0944229 -0.00822914 0.09860346 -0.011791251 -0.033120703 0.03606751 -0.11203966 0.13368517
0.08507001 -0.12637435 0.038965013 -0.08438284 -0.056951597 -0.054666664 -0.063723296 0.018169025
0.0675426 -0.07739097 -0.061028395 -0.05477006 -0.052254032 -0.036011666 0.114275955 0.06410259
0.07185811 0.12431526 0.09661763 -0.151146 -0.1917086 -0.058568835 -0.04283923 -0.052942377
-0.051113494 -0.032859955 -0.122976385 0.036036618 -0.10519924 -0.013113861 -0.16859558 -0.044998065
0.018144978 -0.032787874 -0.012087253 -0.16132687 0.042931903 -0.14586253 0.030732933 -0.020365436
-0.045361377 0.096951105 0.030108795 0.091392174 0.08556157 0.0021921457 0.032067105 0.037603337
0.032701354 -0.15813008 -0.1400964 0.059068095 -0.09879279 -0.13858801 -0.06432429 0.12356389
-0.21711612 0.023305258 -0.060786758 0.0012090965 -0.10486986 0.015712118 -0.014948475 -0.01855723
00000000: eb2b f23c aff0 e5bd 9f32 3f3d 6041 ccbc
00000010: 0164 e3bd 44a1 fe3d 51e3 e23d e70b 6ebd
00000020: c36d 89bd db2f 01be b510 26be a4ed 943d
00000030: 772f 73bd 00a5 36bc db29 04bd ba0d 31be
00000040: 33b1 23bd 6e74 d4bd d531 e7bd 8eb3 943d
00000050: f349 a03b 9952 ddbd ec50 f9bd 43e1 3cbd
00000060: dd02 5fbd 1c55 a53d d740 09be 5821 073e
00000070: b495 813c 5c29 36bd 43df a73c ea44 1f3d
00000080: ff4c 2abe cab9 313d 1429 eabc 763e dabc
00000090: 466c 51bc e230 5abe 515f d7bd 8379 c9bd
000000a0: 34cf 453d da21 263d b6cb c7bd 825a 08be
000000b0: 1cb2 9f3d ae65 913d 0790 45bd efa6 d9bc
000000c0: 0a98 1b3b a3c0 66bc fb89 ca3d a597 1fbe
000000d0: 886c 90bd a5c8 d33b 0cb4 0a3e 97ac b9bd
000000e0: 1606 dfbc 4e03 80bc f70b 873c 5a16 e93d
000000f0: b2c1 dcbd 1ecf c33c 8637 a4b9 505b 72bd
00000100: 3c6c bf3d 307a 94bc fdc8 a9bd fcf4 b73d
00000110: 7f04 dbbd 76c1 7abd b852 823d ff4a b7bc
00000120: 24f9 e4bd 37bc 93bd 02cb bebd edbf e73d
00000130: babf 83bd 145e 93bd 11a2 ffbc 6c48 eabc
00000140: d286 97bd 5756 05be 6695 edbc d4fa 95bd
00000150: 7094 39bc 991c c33d 5968 eb3d 9d28 afbd
00000160: 9b57 4cbe 9ffe e83d 50ed 543d ca12 043e
00000170: 22ff 21be 3fa7 ce3a 071c bc3d 9c4f b83d
00000180: df48 283d 9f2a 803c 6826 9abd b9a6 aebd
00000190: f36e 903c ab5a dd3d 6142 713d cbd8 94bd
000001a0: d77b f03c 35ff d33d 411f 39bc 6c7b 86be
000001b0: 1d4e 54bd fa64 d7bc 0b60 193d 6729 3cbd
000001c0: e2ed 393b 3fdf 663d a4cb b03c 8c43 c43d
000001d0: 7286 75bc 0f4d ab3d 8514 5fbd 9470 19be
000001e0: 65d7 cebc d3cb 203d fb1a a43c 717a ba3d
000001f0: fdab 883d 1bd3 f0bd 016b a3bd da79 31bd
00000200: 9094 763d 5161 c0bd 4637 903d 42db f03c
00000210: 19bd e43d 0030 cf3d d7bd f23b d645 e03d
00000220: be9c 223e 2eeb 07bd 3b83 ee3d 669e 2abe
00000230: 78e7 1abe b3fd 0b3e ad92 a13d a2df 6a3d
00000240: fd25 5fbd 9753 873b 20d6 7fbd 37c6 8abd
00000250: d361 eabb 6912 92bc b319 923d fc82 0abe
00000260: 424b 55bb 4c16 cabc 5c69 6dbc 02d4 b33c
00000270: d544 a1bd 6300 003e 4f61 32bd 7ccd bebd
00000280: 40a0 7f3d 285d e63d 54ef 1ebd 986e 3f3d
00000290: 9aac bcbc 94a5 afbd 8b4f 43bd 8ddc 823d
000002a0: b9c3 ee3d 71f5 fabd 54a4 8a3d b5de a6bd
000002b0: 6449 d5bc 4e24 0abd 0092 88bc 07b2 ad3c
000002c0: 4060 3ebd 142d 20bd a341 9cbe 913c d23c
000002d0: 8673 c43d cd1b b9bc 76f0 8dbd d673 7fbb
000002e0: cb60 c1bd 84d3 06bc 9cf0 c93d 1730 41bc
000002f0: 93a9 07bd 86bb 133d 0d75 e5bd c4e4 083e
00000300: 2f39 ae3d 4768 01be c799 1f3d e9d0 acbd
00000310: 1446 69bd 27ea 5fbd 5c81 82bd 35d7 943c
00000320: c653 8a3d 287f 9ebd e9f8 79bd 9256 60bd
00000330: 5308 56bd f880 13bd 8309 ea3d 3848 833d
00000340: 582a 933d 0099 fe3d 77df c53d 04c6 1abe
00000350: 424f 44be e0e5 6fbd 3078 2fbd 1bda 58bd
00000360: 625c 51bd 2998 06bd 0bdb fbbd 229b 133d
00000370: b372 d7bd 85db 56bc 52a4 2cbe e44f 38bd
00000380: c7a4 943c 944c 06bd 9d09 46bc df32 25be
00000390: 5dd9 2f3d fd5c 15be a2c3 fb3c 6ad5 a6bc
000003a0: dacc 39bd 4d8e c63d b8a6 f63c d22b bb3d
000003b0: e83a af3d 1aaa 0f3b cc58 033d f505 1a3d
000003c0: dbf1 053d daec 21be 6e75 0fbe 63f1 713d
000003d0: e053 cabd 04ea 0dbe 74bc 83bd 110f fd3d
000003e0: b053 5ebe abea be3c 89fb 78bd 8c7a 9e3a
000003f0: 02c6 d6bd b3b6 803c 73ea 74bc 5505 98bc

fc3.bias f4 [10]
0.06176942 -0.030119186 -0.018823251 0.038261775 -0.0061567677 -0.11247458 -0.05809043 0.0032929548
0.058727458 0.08616847
00000000: ee01 7d3d 83bc f6bc 3833 9abc 61b8 1c3d
00000010: b6be c9bb 1359 e6bd 3bf0 6dbd 9dce 573b
00000020: 348c 703d 1879 b03d
