data/models/three-layer_hidden-size-64-32_params.pth (torch, 214065 bytes, 6 tensors)

fc1.weight f4 [64, 784]
0.021682039 -0.026238123 -0.027676353 -0.0332707 0.0088434 0.023150422 0.02593179 -0.00637129
-0.031632006 0.019399598 -0.02152551 -0.0279256 0.00460061 -0.030131254 -0.018013464 -0.03881091
-0.038922686 0.004937938 -0.037625264 -0.030336425 -0.033196144 0.019440277 -0.041917715 -0.00650988
-0.024705403 -0.022906024 0.023768615 -0.015654469 -0.0013962244 0.015094066 -0.003001934 -0.0070450227
-0.030900484 0.017585877 -0.030602207 -0.03954029 0.017535081 -0.037306227 -0.01749773 -0.009229628
0.0071312455 -0.040657308 -0.027227141 -0.020699032 0.010650874 -0.0051927576 0.019360734 -0.03625052
-0.0008141445 0.017671248 0.0003501266 -0.036976125 -0.011778157 0.018831495 0.00222637 -0.00997797
0.0029283601 0.0008212729 -0.017486414 -0.03428102 0.019185618 0.0028602201 -0.013348875 -0.034543145
-0.030315867 0.027109833 -0.0032042866 0.015923625 0.007052143 -0.0075651235 0.013280951 0.0036860069
0.010825198 0.037737258 0.01885362 0.022949273 0.012719699 0.024985874 0.026560273 0.023453405
-0.011749151 -0.017144449 -0.040354807 0.012298411 -0.033284564 0.0018354992 0.024995139 -0.038492166
-0.02812562 -0.049807914 0.00060697435 -0.026227193 -0.026429782 -0.018903926 -0.0029073025 -0.0011178451
-0.056250118 -0.045276523 -0.012001473 0.0051821754 0.0031424286 0.015726604 -0.00020649892 0.008521365
-0.0136192 0.039111026 0.026883665 -0.044157412 0.023386683 -0.007986806 -0.011092813 -0.011009315
0.017717747 -0.031122962 -0.036100823 -0.031356204 -0.037975565 -0.009535303 -0.060118612 -0.08969422
-0.049863037 -0.043341324 -0.07283051 -0.05131399 -0.08729751 -0.05473387 -0.015727002 -0.031824082
0.010691912 -0.015298926 0.007151871 -0.011379226 -0.0015097302 0.026254313 0.024287397 0.017353777
0.018658098 -0.03002925 -0.04580919 -0.028421525 0.02529899 -0.010356717 -0.035235107 -0.042587783
0.0015213841 -0.045677934 -0.031213287 -0.05663117 -0.05236092 -0.10710981 -0.078313164 -0.1014962
-0.113257065 0.029226696 0.010562921 -0.002196945 -0.04136588 -0.020958023 0.04508418 -0.012014794
-0.03753402 0.038374905 0.048712578 0.031101672 0.055493016 -0.0332141 0.014689785 -0.02705845
-0.023142777 -0.04390051 -0.019275151 0.029694008 -0.018357577 -0.013672603 -0.03544417 -0.105681695
-0.080412775 -0.13026504 -0.12042273 -0.034986537 0.03531302 0.016901353 0.025599115 -0.14403212
-0.1460472 -0.16889738 -0.12180021 -0.08009729 -0.0677935 -0.030846903 0.017060556 0.0038845208
-0.018347705 -0.02127103 -0.0047026486 -0.008568043 -0.012734821 -0.037417334 -0.015718212 0.0027222086
-0.044588804 -0.03738664 0.045377627 -0.026291998 -0.015740437 -0.07260436 -0.032053173 0.026165072
0.043452807 0.04360744 -0.0034447736 -0.18140903 -0.16582684 -0.16000679 -0.10613785 -0.07940792
-0.1181464 -0.051422488 0.028073447 0.023534441 0.074092545 0.069399886 -0.020483404 -0.032552127
0.0041192085 0.00058668375 1.9301682e-05 0.009640236 -0.03359765 0.01628475 0.0028772631 0.009027157
-0.06908895 -0.017126927 -0.0032920593 0.044438794 0.07401799 0.0467103 -0.022724727 -0.10527782
-0.14328168 -0.092984684 -0.014116441 -0.065095685 0.0013700789 -0.00225339 0.07110247 0.07828793
0.04676336 0.09113787 -0.035326246 -0.008812927 0.0058361203 -0.03264728 0.025965428 0.026322525
00000000: 889e b13c 55f1 d6bc 85b9 e2bc dc46 08bd
00000010: e8e3 103c f4a5 bd3c e86e d43c 41c6 d0bb
00000020: 9090 01bd e8eb 9e3c 4456 b0bc 3ac4 e4bc
00000030: b7c0 963b d2d5 f6bc f990 93bc 30f8 1ebd
00000040: 656d 1fbd 6dce a13b f31c 1abd 1884 f8bc
00000050: aef8 07bd 3741 9f3c e9b1 2bbd d550 d5bb
00000060: fc62 cabc 6aa5 bbbc 66b6 c23c cd3d 80bc
00000070: 8401 b7ba 1a4d 773c 18bc 44bb efd9 e6bb
00000080: 0323 fdbc 4210 903c 7bb1 fabc 00f5 21bd
00000090: bba5 8f3c 6ace 18bd 6657 8fbc de37 17bc
000000a0: 39ad e93b 4788 26bd 740b dfbc 0491 a9bc
000000b0: 0181 2e3c 0228 aabb 679a 9e3c 6d7b 14bd
000000c0: 506c 55ba 4bc3 903c 3291 b739 4774 17bd
000000d0: 2cf9 40bc 8244 9a3c 4ae8 113b a47a 23bc
000000e0: bbe9 3f3b b14a 573a ab3f 8fbc 416a 0cbd
000000f0: 282b 9d3c 8872 3b3b 3db5 5abc 1d7d 0dbd
00000100: fb58 f8bc 7115 de3c 02ff 51bb 4372 823c
00000110: aa15 e73b dbe4 f7bb 5998 593c ef90 713b
00000120: 2c5c 313c 6292 1a3d e872 9a3c 1d00 bc3c
00000130: 4966 503c 2daf cc3c ee94 d93c 5b21 c03c
00000140: 837f 40bc 8472 8cbc 154b 25bd 467f 493c
00000150: 6555 08bd 2295 f03a 9bc2 cc3c f6a9 1dbd
00000160: b367 e6bc 6203 4cbd 5c1d 1f3a 69da d6bc
00000170: 4583 d8bc 68dc 9abc 7188 3ebb a884 92ba
00000180: 8666 66bd e073 39bd d4a1 44bc 3dcf a93b
00000190: 34f1 4d3b 14d5 803c a287 58b9 329d 0b3c
000001a0: 1123 5fbc e232 203d 223b dc3c 67de 34bd
000001b0: 6e95 bf3c 18db 02bc a1be 35bc 6a60 34bc
000001c0: cf24 913c 95f5 febc 75de 13bd 5d6f 00bd
000001d0: 448c 1bbd f639 1cbc ef3e 76bd 9ab1 b7bd
000001e0: 2f3d 4cbd ac86 31bd 2a28 95bd 9e2e 52bd
000001f0: 09c9 b2bd 9f30 60bd ead5 80bc f859 02bd
00000200: 212d 2f3c 59a8 7abc 3e5a ea3b ef6f 3abc
00000210: 24e2 c5ba 4913 d73c 5df6 c63c 8229 8e3c
00000220: ded8 983c e7ff f5bc 6ba2 3bbd 42d4 e8bc
00000230: d43f cf3c 38af 29bc b052 10bd 8770 2ebd
00000240: 2e69 c73a c918 3bbd 02b3 ffbc 16f6 67bd
00000250: 6778 56bd 635c dbbd a762 a0bd 3ddd cfbd
00000260: 52f3 e7bd d36c ef3c 1a10 2d3c 9ffa 0fbb
00000270: 456f 29bd 29b0 abbc 30aa 383d b3d9 44bc
00000280: 46bd 19bd 012f 1d3d d786 473d efc8 fe3c
00000290: a54c 633d 820b 08bd 6dad 703c afa9 ddbc
000002a0: ec95 bdbc 05d1 33bd ece6 9dbc d940 f33c
000002b0: a162 96bc 0e03 60bc e82d 11bd a56f d8bd
000002c0: 74af a4bd 3364 05be 31a0 f6bd 0b4e 0fbd
000002d0: 63a4 103d b574 8a3c 3cb5 d13c 287d 13be
000002e0: 668d 15be 6ff3 2cbe 6372 f9bd 0c0a a4bd
000002f0: 52d7 8abd a5b2 fcbc 94c2 8b3c 7293 7e3b
00000300: ed4d 96bc 9540 aebc ad18 9abb fa60 0cbc
00000310: b6a5 50bc eb42 19bd 7bc3 80bc 1567 323b
00000320: c0a2 36bd bc22 19bd e4dd 393d 5162 d7bc
00000330: 17f2 80bc 98b1 94bd 304a 03bd 2258 d63c
00000340: 92fb 313d b79d 323d b6c1 61bb 4ac3 39be
00000350: 83ce 29be d2d8 23be cd5e d9bd 9fa0 a2bd
00000360: bdf6 f1bd 63a0 52bd 49fa e53c 4dcb c03c
00000370: d5bd 973d 8721 8e3d d0cc a7bc 6155 05bd
00000380: 6dfa 863b aecb 193a 0cea a137 15f2 1d3c
00000390: b09d 09bd 9967 853c 7790 3c3b a4e6 133c
000003a0: 827e 8dbd c54d 8cbc 97bf 57bb 7405 363d
000003b0: be96 973d 4d53 3f3d 3529 babc e69b d7bd
000003c0: 6fb8 12be c16e bebd a548 67bc e350 85bd
000003d0: 3894 b33a 9cad 13bb 2c9e 913d 6c55 a03d
000003e0: f08a 3f3d 7ea6 ba3d 41b2 10bd 1864 10bc
000003f0: ed3c bf3b 27b9 05bd 73b5 d43c 56a2 d73c

fc1.bias f4 [64]
0.0066029737 -0.00019246462 0.004082884 0.043288242 -0.02278467 -0.0036268411 -0.011416706 0.028636137
0.032579463 0.009009371 0.02643284 0.02548401 0.015841736 -0.014862557 0.040448036 -0.024526704
0.026282389 -0.054211047 0.041720252 -0.012412617 0.012148921 -0.007539352 0.031214727 -0.014049051
-0.012734306 -0.015148685 0.049424157 -0.0077249315 0.002135437 0.012209131 0.0145783955 0.022404559
-0.015167332 0.018849127 0.012586922 -0.0192415 0.056939106 0.013803547 -0.01830963 0.0020907873
0.011183725 -0.025110673 0.015793387 0.002603189 -0.017289342 0.043241043 -0.015636235 0.0056678937
0.01635037 0.040243942 0.011021565 -0.03063572 0.05755646 0.07428617 0.009969171 -0.012239104
-0.04916638 0.025799492 -0.004883842 -0.044349186 -0.0065283896 0.0043552117 -0.03274187 0.0042427727
00000000: c25d d83b 54d0 49b9 b7c9 853b 034f 313d
00000010: eba6 babc 4cb0 6dbb 230d 3bbc 5596 ea3c
00000020: 0b72 053d 0a9c 133c af89 d83c d8c3 d03c
00000030: 87c6 813c 1582 73bc d7ac 253d 3aec c8bc
00000040: 2a4e d73c 670c 5ebd dbe2 2a3d 4a5e 4bbc
00000050: 450c 473c ab0c f7bb 07b6 ff3c fe2d 66bc
00000060: 8da3 50bc 3132 78bc fc70 4a3d 6c21 fdbb
00000070: b0f2 0b3b cf08 483c 39da 6e3c c489 b73c
00000080: 6780 78bc 7c69 9a3c 6139 4e3c 5aa0 9dbc
00000090: fb38 693d 4628 623c 14fe 95bc 9705 093b
000000a0: f13b 373c e6b4 cdbc 2261 813c 449a 2a3b
000000b0: 61a2 8dbc 851d 313d 9017 80bc bdb9 b93b
000000c0: 36f1 853c d5d6 243d cb93 343c c3f7 fabc
000000d0: 53c0 6b3d 5923 983d bc55 233c 8686 48bc
000000e0: b062 49bd 7559 d33c a308 a0bb 7ea7 35bd
000000f0: 1aec d5bb 2ab6 8e3b 571c 06bd f506 8b3b

fc2.weight f4 [32, 64]
0.013923085 0.11279271 -0.2238731 -0.03825901 0.20079415 -0.0695098 -0.12487485 0.12087888
0.08784246 0.006957166 -0.27015027 0.03875598 -0.06839629 0.09367827 0.04567367 0.17976229
-0.030860204 0.08243949 0.15945245 -0.006356308 0.20577525 0.118599616 0.09808623 0.06043572
-0.090995416 0.10819876 -0.05726806 -0.20642695 0.1333703 -0.09757087 0.16357784 -0.18785885
0.17526886 0.14858949 0.0005415168 -0.094110236 0.12639308 -0.15652879 -0.0019890643 0.1255081
0.13301808 -0.020445867 0.19887811 -0.025855903 -0.060599618 0.10955154 -0.08807304 0.10285936
-0.03713047 -0.13712749 -0.020239767 0.060389973 -0.17218274 0.061326418 0.07063047 -0.06021805
0.16634795 0.03189346 -0.018803826 -0.035773765 0.11442996 -0.08870903 -0.08546641 0.031238886
0.057045482 0.030490458 0.016612971 -0.3779003 0.068314336 -0.07427782 0.27464202 -0.143715
-0.117379844 -0.112268895 -0.23259594 -0.046003055 -0.036414716 -0.024042211 -0.2922961 0.043076467
-0.059430346 -0.03097483 -0.14204793 0.05300217 -0.002009044 -0.20837069 0.08286401 -0.015300601
0.2514695 -0.005817077 0.15065056 -0.04761852 0.17307062 0.1106431 0.0149998 -0.052321233
0.09647408 -0.07633834 -0.15366307 0.19682756 0.13442512 -0.14904532 0.0006259387 0.0031276362
-0.016248224 0.100834236 -0.12423214 -0.08978074 -0.15937836 0.16214435 0.11687714 -0.09168088
0.14683615 0.1887602 -0.06918851 0.16881198 0.008084316 -0.035046108 -0.05539558 -0.058051206
0.09720916 -0.31929478 0.13481195 0.12970954 -0.024297547 -0.08762556 0.23288102 0.15730844
0.25047576 0.08004174 0.19401006 0.054647528 0.034357633 0.10919618 0.16845886 0.030267188
0.01303062 0.02078878 -0.12741233 -0.07752963 0.032781202 -0.22793221 -0.026979648 0.061817996
0.18026055 -0.09795851 0.09342567 0.08677747 0.05261181 0.049520854 -0.15393695 -0.11778853
-0.049084753 -0.0033505955 -0.11449998 0.25719664 -0.015769623 0.253842 -0.09997602 -0.07811025
-0.055812348 0.13671361 0.19977893 0.23660238 -0.014436515 0.102605894 -0.03271322 0.10622974
-0.00047947426 -0.25638428 -0.0386524 -0.009966817 0.18592288 0.049178604 0.035800762 0.05014485
0.027378052 0.04427376 -0.1609887 -0.021212447 0.0057064677 0.0028195926 0.13124916 0.1733298
0.08808798 -0.0063705435 -0.102034956 0.16474836 -0.12500337 0.022985047 0.017790783 0.053903878
-0.20485216 0.14799738 -0.04637873 -0.099780686 -0.12852472 0.101295136 -0.16438386 0.15637155
0.1545442 0.04975124 0.16180673 0.010868703 0.05677853 0.09951772 0.10638886 -0.12169944
-0.08795771 -0.05464389 -0.063596494 0.07923418 -0.05534276 0.04435265 0.11027897 0.10607721
0.35671765 -0.042385098 -0.014208157 0.1448993 0.029759511 0.075453304 -0.04112037 0.07988423
-0.094371 0.107878014 -0.0076095494 -0.037347205 -0.027386356 0.11576225 0.053361837 -0.17306326
-0.022902291 0.06481505 -0.11367544 0.20138983 -0.103390545 0.12967719 0.071406014 -0.10714307
0.14346471 0.15846033 -0.06263192 0.11944305 -0.013164706 -0.009308166 -0.049872704 0.11734619
0.003765985 -0.04685485 0.14389622 -0.020038316 -0.058544233 -0.12269962 0.22651748 -0.0039396416
00000000: a71d 643c ddff e63d fd3e 65be 7bb5 1cbd
00000010: fb9c 4d3e 275b 8ebd 63be ffbd 598f f73d
00000020: bfe6 b33d f0f8 e33b 2351 8abe 97be 1e3d
00000030: 5b13 8cbd 65da bf3d 5014 3b3d 9b13 383e
00000040: 8ace fcbc 09d6 a83d 8147 233e 9348 d0bb
00000050: bfb6 523e 5be4 f23d 6fe1 c83d 728b 773d
00000060: ce5b babd 5097 dd3d ea91 6abd 9661 53be
00000070: 3992 083e 3cd3 c7bd f380 273e 125e 40be
00000080: ae79 333e d827 183e 94f4 0d3a debc c0bd
00000090: 306d 013e 1549 20be f65a 02bb 3285 003e
000000a0: e435 083e 177e a7bc b4a6 4b3e c2cf d3bc
000000b0: 4e37 78bd 8f5c e03d a35f b4bd eea7 d23d
000000c0: 1f16 18bd 266b 0cbe decd a5bc 7a5b 773d
000000d0: ac50 30be 6931 7b3d b5a6 903d 34a7 76bd
000000e0: 1e57 2a3e b7a2 023d 7b0a 9abc 8387 12bd
000000f0: 415a ea3d 14ad b5bd 0309 afbd b1e8 ff3c
00000100: 86a8 693d 20c7 f93c ed17 883c 267c c1be
00000110: 63e8 8b3d f81e 98bd e19d 8c3e 062a 13be
00000120: d864 f0bd 3ced e5bd a12d 6ebe b36d 3cbd
00000130: 9927 15bd 2cf4 c4bc d6a7 95be f370 303d
00000140: 3c6d 73bd edbe fdbc 0375 11be ce18 593d
00000150: 2aaa 03bb 205f 55be 9bb4 a93d 5faf 7abc
00000160: 9cc0 803e 2e9d bebb 2444 1a3e a30b 43bd
00000170: 6d39 313e da98 e23d b9c1 753c ca4e 56bd
00000180: 3494 c53d 4757 9cbd da59 1dbe 2a8d 493e
00000190: bda6 093e 569f 18be 0916 243a 07f9 4c3b
000001a0: ff1a 85bc 2e82 ce3d 6c6d febd f7de b7bd
000001b0: 1534 23be 2b09 263e 485d ef3d 2fc3 bbbd
000001c0: 375c 163e 5b4a 413e b5b2 8dbd 0cdd 2c3e
000001d0: 1474 043c 828c 0fbd 7ae6 62bd 1ac7 6dbd
000001e0: 9915 c73d 9b7a a3be 250c 0a3e 94d2 043e
000001f0: a60b c7bc 0875 b3bd 5d78 6e3e 7715 213e
00000200: 5c3e 803e ecec a33d 93aa 463e 16d6 5f3d
00000210: 97ba 0c3d 3fa2 df3d 7b80 2c3e e5f2 f73c
00000220: 627e 553c 3b4d aa3c 6178 02be dbc7 9ebd
00000230: 9545 063d 1067 69be 6c04 ddbc de34 7d3d
00000240: 3996 383e 799e c8bd f555 bf3d 63b8 b13d
00000250: 7b7f 573d 61d6 4a3d a6a1 1dbe 1d3b f1bd
00000260: 180d 49bd aa95 5bbb f77e eabd 47af 833e
00000270: 4c2f 81bc 94f7 813e 3ac0 ccbd 44f8 9fbd
00000280: 7d9b 64bd a7fe 0b3e d992 4c3e e547 723e
00000290: 2287 6cbc 0a23 d23d 4cfe 05bd fa8e d93d
000002a0: f261 fbb9 cd44 83be fb51 1ebd dc4b 23bc
000002b0: 9162 3e3e 816f 493d d2a3 123d b064 4d3d
000002c0: f047 e03c 6758 353d 39da 24be bac5 adbc
000002d0: 52fd ba3b eac8 383b 2e66 063e 5e7d 313e
000002e0: 7967 b43d febf d0bb b4f7 d0bd cbb3 283e
000002f0: e200 00be 234b bc3c fabd 913c 50ca 5c3d
00000300: c4c4 51be a08c 173e a0f7 3dbd d159 ccbd
00000310: fc9b 03be d373 cf3d 3e54 28be dd1f 203e
00000320: d640 1e3e f5c7 4b3d aab0 253e a512 323c
00000330: 9b90 683d f2cf cb3d 67e2 d93d 8e3d f9bd
00000340: 2c23 b4bd 46d2 5fbd e13e 82bd 8845 a23d
00000350: 17af 62bd 20ab 353d f1d9 e13d 023f d93d
00000360: b2a3 b63e ff9b 2dbd 54c9 68bc 7b60 143e
00000370: 38ca f33c 4387 9a3d d56d 28bd 589a a33d
00000380: 9545 c1bd 26ef dc3d 8759 f9bb 62f9 18bd
00000390: 5a59 e0bc c214 ed3d f191 5a3d 7f37 31be
000003a0: 969d bbbc c1bd 843d abce e8bd 2339 4e3e
000003b0: 6cbe d3bd 19ca 043e 513d 923d d36d dbbd
000003c0: 6ae8 123e 6d43 223e 2a45 80bd 8f9e f43d
000003d0: c7b0 57bc 4781 18bc 5247 4cbd 3353 f03d
000003e0: bece 763b dfea 3fbd 8859 133e 6527 a4bc
000003f0: 14cc 6fbd f049 fbbd 33f4 673e 1c18 81bb

fc2.bias f4 [32]
0.121214025 0.078439765 -0.026831398 0.11175582 0.043280616 -0.09833499 -0.039987262 0.074099794
0.06884253 0.100206465 -0.1381023 0.019464951 -0.08757309 0.025138274 -0.054148544 0.039296616
0.095025025 0.14217345 0.034982756 0.14695588 0.113022126 0.05578132 0.17385341 -0.07826521
-0.06598435 -0.07783931 0.13498954 0.0781934 -0.014072654 0.08440289 -0.09947797 -0.09138101
00000000: 0f3f f83d 07a5 a03d 85cd dbbc 3ce0 e43d
00000010: 0447 313d db63 c9bd afc9 23bd a2c1 973d
00000020: 50fd 8c3d 0c39 cd3d b06a 0dbe f674 9f3c
00000030: 8559 b3bd c8ee cd3c ddca 5dbd 7df5 203d
00000040: 7b9c c23d eb95 113e 144a 0f3d 9a7b 163e
00000050: 2578 e73d f47a 643d a106 323e 8349 a0bd
00000060: ce22 87bd 376a 9fbd b33a 0a3e dc23 a03d
00000070: fd90 66bc 6cdb ac3d 1bbb cbbd f825 bbbd

fc3.weight f4 [10, 32]
0.0218366 -0.029783487 -0.14602958 -0.10560864 0.1221857 0.20684178 -0.07573319 -0.33046773
0.080483355 0.0010682936 -0.19862045 0.20806646 0.040806826 -0.08921778 0.017228538 -0.11577928
-0.17553292 0.20531817 -0.2868893 0.14794742 -0.33887452 0.1586624 -0.25460196 0.18791276
-0.010294631 -0.07279312 -0.14056322 -0.22611035 0.0072007505 -0.043025777 0.11886496 0.020357668
-0.19314443 0.1493471 -0.065592 0.20891283 0.11089446 -0.13285255 -0.27287573 0.0777121
-0.3109462 -0.16143046 0.15324172 0.020091282 0.0644681 -0.30336803 0.08469403 0.06784915
-0.007562042 -0.10819357 -0.25176737 0.116237395 0.17318355 -0.19470835 0.072813585 0.013991686
0.02865962 0.18293652 0.18634583 0.2262197 0.03462532 -0.0053597474 -0.24561884 -0.120159395
0.006935094 0.1966805 0.039928176 -0.043217205 -0.13786764 0.016166197 0.05634008 0.16374223
-0.09343426 0.24422416 -0.09286986 0.3154694 0.16766477 0.0012371857 -0.2822667 -0.10728997
-0.03833796 0.17203052 -0.3315319 -0.22175243 -0.22919847 0.25243223 0.16552104 -0.19269262
-0.00026264775 -0.3528576 0.2195311 0.028291333 -0.13045104 -0.045489293 -0.10096564 0.016101157
-0.20457135 -0.13332847 0.09924662 0.15107894 -0.02030206 -0.26104236 0.050273944 0.22138378
-0.10112194 -0.07215304 -0.104700156 0.14908093 0.075779885 0.014514085 0.23141308 0.15199815
0.12743081 0.17890744 0.17278895 0.15707847 -0.20236744 -0.046141755 -0.19062044 0.07616948
-0.09922264 -0.054119702 -0.19388449 0.013165367 -0.34336755 0.02878168 -0.15418129 0.10441972
0.10053512 0.29250893 -0.061362118 -0.18358351 -0.1358054 0.15538979 -0.19129507 -0.0958805
-0.1064071 -0.35829398 -0.17608343 0.05418363 0.27027667 0.09969653 -0.29033235 -0.08286186
0.15257512 -0.2462952 0.015223476 -0.2646793 0.20495641 -0.08253501 -0.06897292 0.050860785
-0.059408456 0.113349356 -0.14433427 -0.091105275 -0.17571813 0.18677945 0.18616569 0.074420564
0.005148846 -0.019491984 0.035884235 -0.15621202 -0.17678532 -0.13389565 0.003040113 0.30629402
0.11347816 0.23227002 -0.09034615 -0.27495372 -0.26754 -0.17816417 -0.15036318 -0.096206516
-0.22166339 0.042086374 0.3388176 0.11241201 0.051198184 -0.23807351 0.15582988 0.16299996
0.14269646 -0.12355445 -0.028810866 -0.16505471 0.11228719 0.12660263 -0.071719766 -0.10704601
-0.31717247 0.19876091 -0.080350146 0.041524775 -0.16617541 0.27684352 -0.057237994 0.09852757
-0.12953958 -0.033392224 0.066789575 -0.21317212 0.057262655 -0.17586616 -0.16663423 -0.115582846
-0.35525733 0.009899828 0.05640408 -0.20614445 -0.20510918 0.20617041 0.12157223 0.17098853
-0.15683384 0.18349709 -0.0911886 -0.20211267 0.13771152 0.18889943 -0.03718087 -0.06750601
0.133207 -0.31423846 0.26934254 -0.15728337 0.12393867 -0.09572467 -0.2715667 -0.22632429
-0.08004142 0.15105131 0.036391564 -0.050465524 0.004259894 0.21333213 0.018884016 0.06223355
-0.07144531 -0.18878552 -0.32062325 0.11897541 -0.010067392 0.19961528 0.092887215 0.27062264
0.049415223 0.030888736 0.1836056 0.11088042 -0.1591189 -0.14892566 0.051867284 -0.12737654
00000000: abe2 b23c 80fc f3bc c788 15be 5849 d8bd
00000010: 7f3c fa3d 55ce 533e 011a 9bbd 1133 a9be
00000020: 75d4 a43d fc05 8c3a 2963 4bbe 600f 553e
00000030: 0f25 273d d0b7 b6bd dd22 8d3c b01d edbd
00000040: e7be 33be ed3e 523e 28e3 92be 877f 173e
00000050: f680 adbe 6578 223e 305b 82be 346c 403e
00000060: d0aa 28bc 8f14 95bd ceef 0fbe 7989 67be
00000070: 46f4 eb3b cc3b 30bd 796f f33d 20c5 a63c
00000080: a7c7 45be 72ee 183e 1955 86bd 3fed 553e
00000090: a21c e33d 800a 08be 5eb6 8bbe 8627 9f3d
000000a0: 5734 9fbe 074e 25be 66eb 1c3e 7996 a43c
000000b0: da07 843d 0e53 9bbe 1074 ad3d 7ff4 8a3d
000000c0: 02cb f7bb 9794 ddbd a7e7 80be df0d ee3d
000000d0: 0757 313e a061 47be 4a1f 953d 623d 653c
000000e0: 94c7 ea3c b653 3b3e 71d1 3e3e 23a6 673e
000000f0: 48d3 0d3d d2a0 afbb 8183 7bbe 2116 f6bd
00000100: c93f e33b 9d66 493e ba8b 233d 8604 31bd
00000110: 2d2d 0dbe f96e 843c dbc4 663d 0bac 273e
00000120: 765a bfbd e615 7a3e 8e32 bebd 3585 a13e
00000130: 50b0 2b3e 1029 a23a 4385 90be d8ba dbbd
00000140: 4408 1dbd c528 303e 8dbe a9be 1213 63be
00000150: 01b3 6abe cc3e 813e 597e 293e 3751 45be
00000160: fcb3 89b9 c0a9 b4be c3cc 603e 3ac3 e73c
00000170: f594 05be fb52 3abd 13c7 cebd 93e6 833c
00000180: 277b 51be 4287 08be d041 cb3d 70b4 1a3e
00000190: 8150 a6bc 58a7 85be 0dec 4d3d 6eb2 623e
000001a0: 0519 cfbd f9c4 93bd 096d d6bd aca8 183e
000001b0: 7c32 9b3d 7ccc 6d3c 8df7 6c3e 67a5 1b3e
000001c0: 397d 023e 8333 373e 96ef 303e 2ed9 203e
000001d0: 6939 4fbe 23ff 3cbd 0132 43be bffe 9b3d
000001e0: 3d35 cbbd 9fac 5dbd a889 46be 8db3 573c
000001f0: dfcd afbe 8fc7 eb3c b3e1 1dbe 02da d53d
00000200: 5be5 cd3d bbc3 953e d856 7bbd 51fd 3bbe
00000210: 9210 0bbe 801e 1f3e dbe2 43be ff5c c4bd
00000220: f7eb d9bd 4f72 b7be 374f 34be a7ef 5d3d
00000230: b461 8a3e b22d cc3d 71a6 94be 7bb3 a9bd
00000240: a73c 1c3e cf34 7cbe e36b 793c 0c84 87be
00000250: 18e0 513e 1e08 a9bd ad41 8dbd 6653 503d
00000260: 4856 73bd b523 e83d 5dcc 13be 6795 babd
00000270: 74ef 33be 1d43 3f3e 38a2 3e3e cf69 983d
00000280: a7b7 a83b a7ad 9fbc 59fb 123d 0bf6 1fbe
00000290: 3607 35be f11b 09be a23c 473b 92d2 9c3e
000002a0: 3d67 e83d 31d8 6d3e 6707 b9bd bcc6 8cbe
000002b0: 01fb 88be ab70 36be cef8 19be ec07 c5bd
000002c0: bafb 62be c362 2c3d 8079 ad3e 4538 e63d
000002d0: 30b5 513d 8bc9 73be de91 1f3e 76e9 263e
000002e0: 051f 123e 1e0a fdbd c404 ecbc 1a04 29be
000002f0: d4f6 e53d 1fa4 013e d0e1 92bd f03a dbbd
00000300: 6e64 a2be fb87 4b3e 9e8e a4bd e215 2a3d
00000310: e329 2abe 6fbe 8d3e 6372 6abd d3c8 c93d
00000320: 06a6 04be 49c6 08bd f9c8 883d cb49 5abe
00000330: 3f8c 6a3d 4216 34be 2aa2 2abe b3b6 ecbd
00000340: 4ae4 b5be e332 223c f707 673d 8817 53be
00000350: 2408 52be 561e 533e dcfa f83d 9e17 2f3e
00000360: 0d99 20be a9e6 3b3e 17c1 babd a0f6 4ebe
00000370: 4004 0d3e da6e 413e f84a 18bd 9740 8abd
00000380: 6a67 083e dde3 a0be 44e7 893e e40e 21be
00000390: 8fd3 fd3d 4c0b c4bd ca0a 8bbe 8ec1 67be
000003a0: c2ec a3bd 32ad 1a3e 520f 153d f0b4 4ebd
000003b0: 9596 8b3b bd73 5a3e a7b2 9a3c 9be8 7e3d
000003c0: eb51 92bd fe50 41be bb28 a4be 61a9 f33d
000003d0: b4f1 24bc f367 4c3e a73b be3d 0d8f 8a3e
000003e0: 9e67 4a3d 600a fd3c 1b03 3c3e 4615 e33d
000003f0: 11f0 22be f87f 18be ca72 543d ff6e 02be

fc3.bias f4 [10]
0.022368012 -0.116578534 -0.17288142 -0.090875365 0.016205138 0.16931456 -0.04102893 -0.024753595
-0.023743346 -0.12962067
00000000: 1f3d b73c bac0 eebd d407 31be dd1c babd
00000010: a3c0 843c cc60 2d3e f40d 28bd 0dc8 cabc
00000020: 6881 c2bc 48bb 04be
