data/models/two-layer_hidden-size-256_params.pth (torch, 816983 bytes, 4 tensors)

fc1.weight f4 [256, 784]
00000000: df2d 3d3c 44b3 a73b 4d44 063d cebb 003d
00000010: 0504 afbc 3b0f b73c bf26 4f3c e39e f0bc
00000020: 1623 9fbb 6e5b 6a3c e98d d4bc 9977 95bc
00000030: 6845 8e3c 5384 e5bc 575d 0fbd 02e0 6fbb
00000040: ef9d 42bc e173 89bc 7937 a4bc 9a8c 81bc
00000050: 2540 603c 2dec 73bc bb75 49bc 8fe4 ba3c
00000060: a0f0 753c e733 ecbc 2d84 423c d64c 6a3c
00000070: 53d1 da3c ea90 dd3b 3df2 ea3c 0b4e 3dbb
00000080: a3dd a6bb 6362 2f3b 83ef da3c 7802 2b3b
00000090: 391e 103b cacd 913b 27c1 e33c 98d7 8b3c
000000a0: 6d58 19bd 659a 883c 3b1f 74ba 5774 12bd
000000b0: 0011 9f3c b4b7 653b 2ac9 01bd 6f63 32bc
000000c0: 24aa 9a3a 3f9a ffbb 79d9 b73c e2ce c83c
000000d0: 2967 413c 4dd3 32bc 1fb5 863c a859 f63b
000000e0: d5d0 b2bc 2efc aeba e9c1 21bc 1241 1ebc
000000f0: 0fee 8c3c d7c1 183c d9df d33c e2ed afba
00000100: c7ea 1abd e675 eebc b416 9d3c 3a92 b0bc
00000110: e043 983b 74eb ad3c a609 3e3d 8cd7 c93a
00000120: 4684 873c 0b95 ca3a 3c42 0fbd 1509 d5bb
00000130: 7526 413c ece7 613c d71d b7bc 9227 863c
00000140: 5e71 0cbd 8204 10bd a173 603b bb9c c7bc
00000150: e111 89bc c16f ff3c 15c5 1bbb dac3 08bd
00000160: 8753 053d 4844 c6bc 8c10 e3bc 2b7c 073b
00000170: 9d7c 53bd c6b9 973c 140b 4abc c3c5 1f3d
00000180: 0008 1dbd ee8d 4dbc 0d64 6dbb c6b6 343c
00000190: 64bc 443b 91b0 79bd ba90 2fbd a057 693b
000001a0: 9e42 92bd 52db 3f3c 14ab f1bc dc5d 233c
000001b0: 32c4 d6b9 c01b abbc 049f cdbb 9963 d3bc
000001c0: db10 11ba 6628 8dbc 11e4 d73c 9301 fc3c
000001d0: 0300 423c 5350 c73c f073 103d 8863 f33c
000001e0: 6db1 e1bc a070 1b3d 10e0 183d 5472 883d
000001f0: a879 5e3d c7ea 943d da0c 933d 325c 78bc
00000200: 40c6 5d3c b1d9 b13a ae16 9abd 89b6 58bc
00000210: 997d 163d 9fef b03d 2c31 0a3d cb13 b2ba
00000220: 0883 b43c 7d13 153d 406c 4ebb 36f8 853c
00000230: 3f3f 11bd 103e 053d 44e5 8dbc 4fd4 07bd
00000240: 255b f5bc 171a b23c 2978 f13c d65b 0a3d
00000250: 241a 2fbd 5c5f 4cbc 4a48 723c da13 ce3c
00000260: e147 0b3d 60f3 bdbc bf9d f83c b08d 9e3c
00000270: c92b 2b3c f240 b13d a3a5 ae3c e25c 483d
00000280: af4f 763d 2122 b33d c954 003e a512 5c3d
00000290: 704b 8e3d a996 2f3d d04b ca3c 6ad1 b93b
000002a0: e5c9 97bb 4d29 ec3c 4a06 ed3c 5673 a4bc
000002b0: f7a2 79bc 7597 adbc 28e0 0f3c b06c 60bd
000002c0: c130 17bd b15e 1dbd a762 a7bd 8016 b5bd
000002d0: 8c19 66bc cfb9 03bd ace0 b4bd d211 07bd
000002e0: 2d83 44bc e735 8abd 067f a9bd 81aa 3dbd
000002f0: e7b9 833b e732 623c d45a d03c 36b5 e73d
00000300: 2a8c 913d 0905 e439 7054 273c 1fed b33b
00000310: 5f65 65bb f0ef c5bc f79f 63bc 8a0b 7ebc
00000320: df33 a03c 7d06 c1bc f6cc 69bd 346a b2bd
00000330: f62c 2dbd d466 7cbd a2e8 f0bd c032 3bbd
00000340: 19a5 22bd ae6c 93bd f5c9 53bd aec0 ecbc
00000350: 9f18 a3bd a700 8bbd 9d4a e1bd 4bee 9bbc
00000360: 028a 55bd 420e 39bc 2b90 2c3a 72bd 3b3d
00000370: 8ff0 633d adcd c33c 62c2 073b e97f 903c
00000380: c002 21bd 9d58 0bbd 61d4 d53c b534 adbc
00000390: 5b32 4ebd 7fd1 4cba 7ea8 bcbd 4151 95bc
000003a0: 79ec 8dbd 16dc 38bd ce55 3bbc 66e7 be3c
000003b0: 931f 1dbb 80bf 49bc 2e30 abbb 3670 d5bd
000003c0: 6847 ffbd d4ae 1abd b7f8 88bd 0143 4eba
000003d0: 70cc 073d 0ba0 53bc d583 73bc e9c4 d43c
000003e0: bc54 5d3d c4df 1f3d 306a 3f3d b52a 283c
000003f0: 13ad 02bd 7a77 9f3c ae61 0fbd 5bc7 d43b
0.011546581 0.0051178057 0.03277998 0.031429105 -0.021364221 0.02234613 0.012643515 -0.029372638
-0.0048564775 0.014304025 -0.025946574 -0.018245505 0.01736708 -0.028017199 -0.035001125 -0.0036602025
-0.011878475 -0.016778888 -0.020045983 -0.015814114 0.013687168 -0.014887852 -0.012296136 0.022814063
0.015010983 -0.028833343 0.0118723335 0.014300546 0.026711142 0.00676166 0.028679961 -0.0028885629
-0.005092339 0.0026761524 0.026725536 0.0026094 0.002199067 0.004449581 0.027802063 0.017070577
-0.037437845 0.016675184 -0.0009312515 -0.03575548 0.019417286 0.0035052123 -0.031685986 -0.010887965
0.0011799973 -0.00780037 0.022442566 0.024512712 0.01180438 -0.010914636 0.016443787 0.007518012
-0.021828094 -0.0013350302 -0.009872892 -0.009659069 0.017203359 0.009323559 0.025863575 -0.0013422335
-0.037821557 -0.029108953 0.019175865 -0.021554101 0.004646763 0.021230437 0.04639592 0.0015399321
0.016542565 0.0015455795 -0.034975275 -0.006501327 0.011788954 0.013788205 -0.022353096 0.01637629
-0.034287803 -0.03516055 0.0034248608 -0.024366727 -0.016732158 0.031181218 -0.0023768593 -0.033389904
0.03255036 -0.02420248 -0.027717851 0.0020673375 -0.051632512 0.0185212 -0.012331743 0.03900696
-0.038337708 -0.012546046 -0.0036222965 0.011029905 0.0030019516 -0.060959402 -0.04286263 0.0035605207
-0.071416125 0.011710005 -0.029500522 0.009971108 -0.00040963438 -0.020887256 -0.0062750597 -0.025804328
-0.00055338227 -0.017231178 0.026353868 0.03076247 0.011840823 0.024330294 0.035266817 0.029710546
-0.027550424 0.037949204 0.037323058 0.06662431 0.05431524 0.07271343 0.071801856 -0.0151587
0.013536036 0.0013568905 -0.07523857 -0.0132271135 0.036740873 0.08639454 0.0337383 -0.0013586221
0.022035137 0.03639554 -0.0031497627 0.016353708 -0.035460707 0.03252989 -0.017321236 -0.033161458
-0.029950688 0.021740956 0.029476242 0.033778988 -0.04274954 -0.012473907 0.014787743 0.02515595
0.034004096 -0.02318734 0.030348657 0.019354671 0.010447451 0.086549655 0.021319216 0.048916705
0.060134586 0.08746744 0.12532343 0.05372872 0.06947982 0.04286829 0.024694353 0.005670716
-0.004632222 0.028828287 0.028933663 -0.020074528 -0.015236608 -0.021190384 0.00878147 -0.054791152
-0.03691173 -0.038420383 -0.08173113 -0.08842182 -0.014044177 -0.032159623 -0.08831915 -0.03297598
-0.011994165 -0.06748562 -0.08276181 -0.046305183 0.004019964 0.013806081 0.025433935 0.1131386
0.07106812 0.000434913 0.010213003 0.0054909135 -0.0035003049 -0.024162263 -0.013893119 -0.015505681
0.019555984 -0.023562664 -0.05708023 -0.08711663 -0.042279206 -0.061621502 -0.11763121 -0.045702696
-0.03970823 -0.071984634 -0.051706273 -0.02890047 -0.079636805 -0.06787234 -0.110005595 -0.019034525
-0.052133568 -0.011294903 0.0006582762 0.045834966 0.055649336 0.023901785 0.0020715226 0.017639117
-0.039309263 -0.034020055 0.026102247 -0.021143297 -0.05034099 -0.00078132 -0.09211825 -0.018227221
-0.06929869 -0.045131765 -0.011434032 0.023303699 -0.0023975119 -0.012313724 -0.0052242493 -0.10421793
-0.124647915 -0.037764385 -0.066880636 -0.0007868261 0.03315395 -0.012916575 -0.014862974 0.0259728
0.054035887 0.03903176 0.046732128 0.010264088 -0.031903338 0.01946615 -0.035005264 0.0064934916

fc1.bias f4 [256]
00000000: 200d 4d3c 6760 24bc 9231 cc3c 8ec3 553b
00000010: b2fd 3fbc d042 87bc 8411 e2bc 5c92 983a
00000020: a5b2 cb3c 1fa3 93bc ccc6 1bbd fa2a 8c3c
00000030: b9a9 0e3d 0573 33bd 148e e73c 4eaf d13b
00000040: d43e 81bc 1d2f 71bd bf5b 243c 4737 c0bb
00000050: 20ce 18bd 24c1 0ebd bf27 27bd 3bc9 27bc
00000060: 01bc 0f3d e2ae 5bbc 5f9e 8d3c 8e55 e63c
00000070: 2800 60bc 2410 983b 9e35 d03c ce75 1fbd
00000080: 1d3b 18bd f5c3 0a3b 205e 51bc aa2f b43b
00000090: 92a3 cbbc 29f5 50bb c417 c7bc 38cd 1abd
000000a0: 6af5 7b39 705d 5fbc 59b6 35bd e801 343c
000000b0: 1a39 c7bb 9cb2 103b 46b6 a0bc 91a3 94bc
000000c0: 0ac1 213c 2c15 8b3b f61e ab3a 98de 8bbc
000000d0: 84e5 253d e207 6a3c 3a87 09bd 1914 9d3b
000000e0: 0e8c 00bd 1c1a 2ebd 6fe1 4b3c aa1d a7bc
000000f0: 96c3 583c 8431 2b3c 0f53 0abc 1cd2 6dbc
00000100: 49ec 90bb 39f3 f9bc 7ea3 35bd 9b04 073d
00000110: 849e 0bbc 4d93 56bd 70fe 05bd a453 b0bc
00000120: 868c d9bc aab1 8dbc 3ff8 163d 326c 103d
00000130: a0aa 513d 2130 0abb 1250 3d3b b72a 8cbc
00000140: 5075 ccba fe28 5b3c 275c 53bb 4c9e 8bbc
00000150: 8cf8 df3c fc75 003d c1e6 01bc e107 c9bc
00000160: 66ae 2c3c ec1f dbbc 2fee a1bc dbeb 46bc
00000170: a20f 68bc 7ea1 f2bb b3e1 f13c bb0b 92bc
00000180: 4c3b 553c 7826 0abd add5 9b3c abc2 d6bc
00000190: 820a fdbc 8f55 16bd e192 1abd 68f4 5ebc
000001a0: 2638 16bd c729 61bc cae5 95bc 1d05 3bbd
000001b0: bddc 07bd 2019 f13c 5fc0 babb b418 babc
000001c0: a20e b4ba 2690 61bd 12f6 01bd e64c 86bc
000001d0: fb84 18bd a1cf 3a3c 9225 12bd a421 10bd
000001e0: 903a 2cbd 4005 49bb 14ed 4bba 37db 213c
000001f0: d821 2ebd 0099 5bbc e74c feba 81e0 08bd
00000200: 6a7c aabc 11ea 043b 5bc4 343c f0a4 04bd
00000210: e3f7 4a3b 48ff e2bc 5170 c63c a3ba a8bc
00000220: 1f6e 4dbc 6d04 0abd ca8e bf3c e19f 4fbc
00000230: 4162 193c 7858 c03c 8afc 30bd b524 23bd
00000240: 1326 b83c 0b91 8f3b e3b3 283c 3662 6b3c
00000250: 4f8f cb3c 65ad ffbc a367 693c c66f ce3b
00000260: afb1 01bd 6921 9cbc cfc8 bbbc bd11 c2bc
00000270: 3b24 c5bc 0c11 f2bc 7814 ba3c 0c8a ff3b
00000280: 427f 073d 8a80 10bd faa4 813b cc9e 8e3c
00000290: 620f 28bd 4e61 01bc eceb 2a3c 8677 f6bc
000002a0: da9a 25bd 6b1f ef3b c9b0 a73c 3f47 4cbc
000002b0: 6f16 1bbd 8b89 0ebc 143d da3c 5441 85bc
000002c0: 4cfa dcbc 6494 fabc 750f 633c ea6f c33a
000002d0: 53ce 66bd 01a0 f1bb 4d05 04bc cb95 483c
000002e0: cb8c 41bd 273d ab3c 9a76 f0bc a945 63bc
000002f0: 73e7 44bc 3ca4 50bc adba aa3b 32ce 20bc
00000300: 4dd5 e3bc b31f 12bd 7d02 7ebc 9ba3 003d
00000310: b68f 0b3d f572 f8bc b4d4 8b3c a17b 9dba
00000320: 7bc7 9cbc 2a99 40bd cfc0 1bbd ef99 14bd
00000330: c74d b1bc 79ff adbc b46d 743c af12 083c
00000340: 2582 f93b 75a6 143d 6374 ad3c 2aa9 54bb
00000350: b922 7ebd e6a0 9b3c 3841 dcbc e436 c23c
00000360: ee2c 8f3c 3867 ba3c 0ba6 bebb 41d0 bfbc
00000370: 92a3 683c f682 4a3a 19b3 e5bc 3e47 da3c
00000380: 7c9b c63c e41c 433c f485 0ebd 5f4e b0bc
00000390: 5da9 84bb 8b3d 4abd bf93 ffbc 2af3 db3c
000003a0: f28c cc3b 840b 2ebd 889d b43c 96b2 bebc
000003b0: 30d2 af3c 275f c93c 571e 9d3c 1bfc 69bc
000003c0: 4fb6 84bd f4fd ec3c ac31 6cbc d0f5 dfbc
000003d0: 1554 a8ba 0c44 f8bb 3a9e b93c bb60 533c
000003e0: 731b f8bc be13 ccbb 0ae6 a63c 4a36 fb3c
000003f0: 1218 b63b e57b 263c 988a f13c aff4 38bc
0.012515336 -0.01003275 0.02492598 0.003261778 -0.0117182005 -0.01651135 -0.027596243 0.0011640298
0.024865458 -0.018022118 -0.038031384 0.017110337 0.03482983 -0.043810863 0.02826599 0.006399072
-0.01577703 -0.05888282 0.01003164 -0.0058659646 -0.03730595 -0.034852162 -0.04080939 -0.010240848
0.035091404 -0.0134083945 0.017287431 0.028116968 -0.013671912 0.004640596 0.025416192 -0.038930707
-0.03716575 0.0021173928 -0.012778789 0.005498846 -0.02485827 -0.0031884408 -0.024303325 -0.037793368
0.00024028649 -0.013633117 -0.044363353 0.010986783 -0.006079805 0.0022079116 -0.019618165 -0.0181444
0.009872684 0.0042444672 0.0013055492 -0.017073914 0.040502086 0.014284106 -0.033576228 0.0047936556
-0.031383567 -0.04250537 0.012443884 -0.020399887 0.013230225 0.010448817 -0.008442654 -0.014515426
-0.0044226986 -0.030511485 -0.04434537 0.032963376 -0.00852168 -0.05238657 -0.032713354 -0.021524258
-0.026556265 -0.01729663 0.03685784 0.035259433 0.05118811 -0.0021085816 0.0028886837 -0.017110212
-0.0015598927 0.0133764725 -0.0032250972 -0.017043255 0.027340196 0.03136252 -0.007928551 -0.02453989
0.010539627 -0.02674862 -0.019766895 -0.012141193 -0.014163883 -0.0074045053 0.029526567 -0.01782786
0.013014626 -0.033728093 0.019022787 -0.026215872 -0.0308888 -0.03670269 -0.03773773 -0.013608076
-0.03667464 -0.013742871 -0.018298049 -0.045659173 -0.033169497 0.029430926 -0.005699202 -0.022716857
-0.0013737271 -0.05506911 -0.03172881 -0.01639409 -0.037236195 0.011402042 -0.03568036 -0.035188332
-0.042048037 -0.0030673295 -0.0007779163 0.009878925 -0.042512745 -0.013403177 -0.0019401581 -0.03341723
-0.020811278 0.0020281116 0.011033143 -0.03238386 0.0030970506 -0.027709618 0.024223479 -0.020596808
-0.012538462 -0.033695627 0.023383517 -0.012672395 0.009361804 0.023479685 -0.04320959 -0.03982993
0.022479093 0.004381304 0.010296795 0.014366677 0.024848608 -0.03121061 0.0142459 0.0062999455
-0.031663593 -0.0190589 -0.022922901 -0.023690099 -0.024065128 -0.029549144 0.022714838 0.007798439
0.033080347 -0.035278834 0.0039564343 0.017409705 -0.041030295 -0.007896734 0.010432225 -0.03008629
-0.04043088 0.0072974465 0.02047004 -0.012468158 -0.03786319 -0.008699785 0.026640452 -0.016266502
-0.02697482 -0.030588336 0.013858666 0.0014910672 -0.05634911 -0.0073738103 -0.008057904 0.012242745
-0.04725341 0.020903183 -0.029353429 -0.013871589 -0.012018072 -0.012734469 0.005210242 -0.009814786
-0.02781167 -0.035674762 -0.015503523 0.031406026 0.0340726 -0.030328253 0.017069198 -0.0012014994
-0.019138088 -0.04702107 -0.038025673 -0.036279615 -0.021643532 -0.021239983 0.014918733 0.008305236
0.0076143914 0.03629156 0.021173662 -0.0032449462 -0.062044833 0.01899762 -0.026886567 0.023707815
0.017477479 0.022754297 -0.0058181337 -0.023414733 0.014199154 0.0007725203 -0.028039502 0.026645299
0.024244063 0.0119087435 -0.034795716 -0.021521745 -0.00404851 -0.0493751 -0.03119838 0.026849348
0.006242388 -0.04249145 0.022047773 -0.023278516 0.02146253 0.024581505 0.019179506 -0.014281298
-0.06480085 0.028929688 -0.01441614 -0.027338892 -0.0012842441 -0.007576471 0.022658456 0.01290148
-0.030286526 -0.0062279394 0.020373363 0.030665535 0.0055570686 0.010161375 0.029485032 -0.011288806

fc2.weight f4 [10, 256]
00000000: 61b7 15be 8e0f acbd c274 16bd 41de df3c
00000010: 6854 1d3d 4a76 86be 4d5b 933d 87bb 62bd
00000020: ad97 14bd 8043 10bd c309 3fbe 515b 333d
00000030: 8a88 9abc 9207 adbd 5717 62bd c569 09be
00000040: acb1 9abc 8052 78bd 4841 553d 6b08 81bd
00000050: d724 273d fcf6 dbbd 5de4 04be 2518 48bd
00000060: defe e3bc 777a dcbd a469 15be 0330 a13d
00000070: 25a0 5cbe 1f10 5e3c d899 1c3d dd69 4dbc
00000080: 55ee 573d 3292 15be 0c2d 2abd c2b2 54bd
00000090: fa30 25bd 6ad8 2f3d 56a9 aa3d 79bd 8b3d
000000a0: 3382 713d 29aa f3bb 3a26 2abe c6e6 033d
000000b0: 1954 4fbe c86d c3bd f995 a03c b3fc 983c
000000c0: d5da c5bd fa63 dbbd a847 8cbd 5f4d 05bc
000000d0: f7d2 423d fd94 463d 5bd6 383b de99 2b3d
000000e0: 12e1 9bbd a33b df3c 227b bdbd e1ef 9f3d
000000f0: c68f a43d 78cc 2e3d 0821 7dbd 7e4c dc3d
00000100: 40e4 89be d7b3 1a3d 5423 d13d b4db 143c
00000110: 2ade 38be 58db 923d cef0 92bc 88f7 adbc
00000120: 050e 84bd 12ac 893d f8d8 f73c 7035 d43d
00000130: b43e 4cbd b050 5e3d 63d9 a2bc 58c2 04bd
00000140: a79c d33a c3c7 a23b d260 3dbe 6e35 40bd
00000150: c022 88bb 279d 83bb 2eea f63b 728a c33d
00000160: 2370 8e3d c6d6 fdbd 118e 853b 6cdb 573d
00000170: cf82 9e3d 2842 29bd 0b6e 05be 2a18 06bd
00000180: fc50 2abe bc34 963d 7969 7a3d b8d8 4e3c
00000190: 0fdb d139 40e3 0abe f3d8 32bd 1296 1abe
000001a0: 078f d73a 4a5d 6a3b 40d0 fc3c e06b 1abd
000001b0: e5ab 803d 9b8d fa3d 0571 a63c 6c49 b13d
000001c0: 3dff 0ebe 48d5 c8bc 3064 cd3c fc8a 94bd
000001d0: af14 a4bd e971 d53d 9147 10be f880 aabd
000001e0: ce70 91bd 27a2 c7bc 4847 183d 2748 923d
000001f0: 2b47 043d dd0a 81bd ff68 bd3d 720d a83d
00000200: 3042 713d 1ee8 49be fc1e 13be ecda 82bd
00000210: 7c58 923d 8644 77be 068e 9e3d 438e 843d
00000220: 329b 9abd 2c9c 143d aea9 87bd 4ee5 d5bc
00000230: 27df cfbd f6ae c83d 6b29 c63c ef30 35bd
00000240: f6a4 a9bd 0f6f c3bd 044d 23be ac01 f73d
00000250: cbbb e7bd 1f00 bd3d 0778 8ebb 6765 8f3d
00000260: 8441 463d 635a 2d3d fcc9 833d d408 2bbd
00000270: 4baa 1ebe 2874 2c3d bb6c f8bc 5996 1ebd
00000280: 0dc0 48be 819e 643d 2749 aebc e180 f8bd
00000290: 20fe 083d 8515 a4bc 0f87 b9bd 169c 0dbe
000002a0: f427 eb3c 9007 f3bd 3c01 8abe 8133 82be
000002b0: 39e6 843d ec92 9a3d cacb e6bd 66ec 1a3d
000002c0: 48ab 00be 440b da3d a19b a93c c1cb 8f3d
000002d0: 7c6f a6bd fede 8ebc ec17 dbbb 3732 3a3d
000002e0: 06b5 283d 2330 313d 1ee1 263d 570b 53bd
000002f0: 30a5 ecbd 80f9 16be 921a 2bbd 4a1e 0fbe
00000300: f1f9 e8bd a830 723a 35b9 bcba 0fb3 af3c
00000310: 5cc5 54bd 4861 0cbe 4273 d43d c7d8 c1bd
00000320: b113 763a 4e73 4abd e612 a8bd 939a e13c
00000330: 5c8b e3bd 3d15 2dbb cf42 0f3d 798a 33be
00000340: 4088 613d 634d 3cbd 2b05 ae3d fe88 bd3c
00000350: 8059 fdbd eefd 9fbc d65c 9bbd fe6c 30bd
00000360: 4f53 493d 847f 1cbc 96de 473d ddec 873d
00000370: 49fc 333d 0055 b6bd af2e 563d 9fd9 823d
00000380: 8867 fd3c 3019 a13d d42a a63d 12fe c23d
00000390: 42f3 393d ebbb 7f3d 8c3b f3bd 80e9 02be
000003a0: 2255 f43c 7998 6cbd 6cc7 963d d474 233d
000003b0: 9876 11be bf55 a9bd a039 873d 33b5 7b3d
000003c0: 5785 063e 2ec3 d7bd e3e2 5c3d c9d3 15be
000003d0: be1f f93d c917 f6bd 4468 1d3d 4d09 333b
000003e0: 5c10 b73d 5a94 29bc 56e1 fcbd edb1 6d3d
000003f0: 72c5 ad3d f629 c63d 724a 60bd 1a0d 473d
-0.14620735 -0.08401404 -0.036732443 0.027327659 0.038410574 -0.26262122 0.071951486 -0.05535462
-0.03627746 -0.035220623 -0.18656068 0.043788258 -0.018863935 -0.084487095 -0.05519804 -0.13419254
-0.018883549 -0.060625553 0.05206421 -0.06300434 0.040806618 -0.10740468 -0.12977739 -0.04885115
-0.027831491 -0.10765546 -0.1459108 0.07870486 -0.21545465 0.013553648 0.038232654 -0.012537447
0.052717526 -0.1460655 -0.041546866 -0.05192829 -0.04032991 0.042930998 0.083330795 0.068232484
0.05896206 -0.007436056 -0.16616145 0.032202505 -0.20246924 -0.095424235 0.019602763 0.018675184
-0.096608795 -0.107124284 -0.06849605 -0.0081361225 0.047564473 0.04848193 0.0028203938 0.041894786
-0.07611288 0.027250117 -0.09252001 0.07809425 0.08035235 0.042675465 -0.06179908 0.10756777
-0.26931953 0.037769165 0.102118164 0.009085584 -0.18053499 0.07170743 -0.01793709 -0.021236196
-0.064479865 0.06722273 0.030254826 0.10361755 -0.049864486 0.05427617 -0.019879049 -0.032411903
0.0016144708 0.004967661 -0.18493965 -0.046925955 -0.004154533 -0.0040165368 0.0075352406 0.09547891
0.06954982 -0.123944804 0.0040757735 0.05269949 0.077397935 -0.041322857 -0.1303026 -0.03273789
-0.16632456 0.07334277 0.061135743 0.012624912 0.00040026798 -0.13563251 -0.04366393 -0.1509631
0.0016445824 0.003576117 0.03086102 -0.037700534 0.06282786 0.1223404 0.020317564 0.08656582
-0.13964553 -0.024515763 0.025072187 -0.07253072 -0.080117576 0.10422117 -0.140898 -0.0832538
-0.07101594 -0.024369312 0.037177354 0.07142668 0.032294434 -0.063009 0.09248542 0.082056895
0.058901012 -0.19717452 -0.14367288 -0.06389412 0.07145783 -0.24147233 0.077419326 0.06472447
-0.075491324 0.03628175 -0.06624161 -0.026110318 -0.10149985 0.09798996 0.024189672 -0.04423612
-0.08283417 -0.09542667 -0.15947348 0.12060866 -0.113151155 0.09228539 -0.0043478045 0.07001763
0.048402324 0.042322528 0.0643501 -0.041756466 -0.15494649 0.042102963 -0.030325284 -0.0387176
-0.19604512 0.055815224 -0.021275116 -0.12133957 0.033445477 -0.020029793 -0.090589635 -0.13829073
0.028705575 -0.11866677 -0.26954067 -0.2542992 0.06489224 0.075475544 -0.112693384 0.037823103
-0.12565339 0.1064668 0.020704092 0.07021285 -0.08126733 -0.017440315 -0.0066862013 0.045458045
0.041188262 0.043258797 0.040742032 -0.051524486 -0.115549445 -0.14743614 -0.041773386 -0.13976398
-0.113757975 0.0009238818 -0.0014398458 0.021447686 -0.05194603 -0.13708985 0.10373546 -0.09465175
0.00093870895 -0.04942637 -0.082067296 0.027539527 -0.11110565 -0.0026410364 0.034975823 -0.17533292
0.05506158 -0.04597224 0.084970795 0.023136612 -0.123705864 -0.019530263 -0.075860664 -0.043072693
0.049151715 -0.0095518865 0.04879626 0.06636975 0.04394177 -0.08902931 0.052290615 0.06389164
0.030933157 0.07866132 0.081136376 0.09521116 0.045398004 0.062435072 -0.11876592 -0.12784386
0.02982575 -0.057762597 0.073622555 0.039906338 -0.14205396 -0.08268308 0.06602788 0.061452102
0.13136803 -0.105352744 0.053927314 -0.14631571 0.121642575 -0.120162554 0.038429514 0.0027318776
0.08938667 -0.010350311 -0.12347667 0.05803101 0.08484925 0.09675972 -0.054758497 0.04859648

fc2.bias f4 [10]
00000000: d831 abbd a14e a9bd 0dd4 333d c3ae 87bd
00000010: b34a cb3c cd7e 953c 5212 e23a 3fcf 00bd
00000020: ee6b cd3d ccd1 bb3c
-0.08359116 -0.082669504 0.0439034 -0.0662513 0.024815893 0.01824894 0.0017247892 -0.031447645
0.100303516 0.022927187
