data/models/two-layer_hidden-size-32_params.pth (torch, 104589 bytes, 4 tensors)

fc1.weight f4 [32, 784]
0	0xbc64a8b4	-0.013956238
1	0xbb6c0db9	-0.0036018922
2	0xbc7ae91d	-0.015314368
3	0xbccedc1b	-0.025251439
4	0x3d20a921	0.039223794
5	0xbaabc3aa	-0.0013104577
6	0xbc28baea	-0.01029847
7	0xbcb3e6d5	-0.021960655
8	0x3cb07023	0.021537846
9	0x3d096cf3	0.033551168
10	0x3d1bfdf1	0.038083974
11	0xbc21a2a2	-0.009865435
12	0x3cbd3e2c	0.023100935
13	0xbc9f6198	-0.019455716
14	0xbcd7f5eb	-0.02636238
15	0xbcd25b15	-0.025678197
16	0x3ca53939	0.020168887
17	0xbcb0cd09	-0.021582143
18	0x3c6deba2	0.014521511
19	0x3cd8c9f8	0.026463494
20	0x3c89a736	0.016803365
21	0x3ca96ebf	0.02068269
22	0xbcd77b2d	-0.026303852
23	0x3ce13e09	0.027495401
24	0x3c1c360e	0.009534372
25	0x3d11cedf	0.03559768
26	0x3c95a21b	0.018265774
27	0xbb81e025	-0.0039634877
28	0xbc910c77	-0.017706139
29	0x3b927115	0.004469047
30	0x3d0f5513	0.034993242
31	0x3d0b9041	0.034073118
32	0x3cb762e3	0.02238602
33	0x3c24c1f6	0.0100560095
34	0x3d0d149b	0.03444348
35	0x3cf895ab	0.030344805
36	0x3cf1eb4e	0.029531147
37	0xbca86364	-0.020555206
38	0xbc952c90	-0.018209726
39	0xbc6f6d9b	-0.014613534
40	0x3d111a06	0.03542521
41	0xbcf9a5be	-0.03047454
42	0xbcd229b8	-0.025654659
43	0x3c33e74f	0.010980441
44	0x3d075f90	0.03305012
45	0xbcd9aa1e	-0.026570376
46	0x3cb1698a	0.02165677
47	0x3c7feb22	0.015620025
48	0x3d08b0b2	0.033371635
49	0xbc97cde3	-0.018530792
50	0xbc0a3250	-0.008434847
51	0x3d214997	0.03937682
52	0x3d0acd79	0.03388736
53	0xbcb23b8d	-0.021756912
54	0xbcdb1f41	-0.026748301
55	0xbc9be5e6	-0.019030523
56	0x3d1406af	0.036139186
57	0xbcda75a1	-0.026667418
58	0xbc94ab09	-0.018147962
59	0xbb87c659	-0.004143518
60	0xbbfd41d1	-0.007728793
61	0x3c89c115	0.016815701
62	0x3c766f04	0.015041117
63	0x3c6be88c	0.014398705
64	0x3cb352ad	0.021890009
65	0xbc91e07d	-0.01780724
66	0xbbde9752	-0.006792941
67	0x3bc8d96a	0.0061294334
68	0xbcd6d59a	-0.0262249
69	0xbd6c5918	-0.057702154
70	0x3c161c26	0.009161985
71	0xbbb81b54	-0.005618492
72	0xbcce27d3	-0.025165474
73	0x3cf18d3f	0.029486297
74	0xbc1c5bce	-0.009543372
75	0x3ce792e4	0.028268285
76	0x3c908551	0.017641695
77	0xbb2d0cb7	-0.0026405284
78	0xbca2f677	-0.019892914
79	0x3bb75ae8	0.0055955537
80	0x3afa39ea	0.0019090746
81	0xbb5a85d5	-0.003334393
82	0xbc3c292a	-0.011484424
83	0xbc10a32e	-0.008827968
84	0xbcd12d27	-0.025534226
85	0xbcdca425	-0.026933739
86	0xbc177d52	-0.009246187
87	0xbc6ff375	-0.014645447
88	0x3cb766ec	0.022387944
89	0x3c64a96d	0.01395641
90	0x3c104a23	0.008806738
91	0xbccfca4f	-0.025365023
92	0xbb2e0de7	-0.002655858
93	0xbd370615	-0.044683535
94	0xbcb1e944	-0.021717675
95	0xbc975ff1	-0.018478366
96	0xbd921aca	-0.07134016
97	0xbddc1eca	-0.1074806
98	0xbdcd8f4c	-0.10037097
99	0xbdad475f	-0.084608786
100	0xbd9ad537	-0.07560199
101	0xbd56189f	-0.052269574
102	0xbb20faa3	-0.0024563454
103	0x3c4d1108	0.012516268
104	0x3d10f863	0.03539313
105	0xbc4546b3	-0.012040782
106	0x3d0b18bc	0.033959135
107	0x3c1571a4	0.009121332
108	0x3cf01490	0.02930668
109	0x3cc7b110	0.024376422
110	0x3d0ef18e	0.034898333
111	0xbbe995ad	-0.0071284384
112	0x3d13fc35	0.036129195
113	0xbc891900	-0.016735554
114	0x3c910000	0.017700195
115	0xbb31ed39	-0.0027149452
116	0x3ce477bd	0.027889127
117	0x3c870399	0.016481208
118	0xbbf96407	-0.007610801
119	0x3d12bb99	0.03582344
120	0xbce69f42	-0.028152112
121	0x3ce2cc2f	0.027685253
122	0x3cca9e0b	0.024733564
123	0x3d8de18f	0.069277875
124	0xbb95e37a	-0.0045742365
125	0xbd9e12be	-0.077184185
126	0xbd11f493	-0.035633635
127	0xbc2c1afa	-0.010504479
128	0xbd02fe56	-0.031980835
129	0x3d2b5972	0.04183335
130	0x3d98c8b0	0.07460153
131	0xbc4477ca	-0.011991451
132	0x3a9ae300	0.0011816919
133	0xbb965130	-0.004587315
134	0x3cc14b4b	0.023595473
135	0xbbe6e774	-0.0070466343
136	0x3d775e34	0.060392573
137	0x3c585d76	0.013205877
138	0x3d30ab23	0.04313196
139	0x3c2f0d99	0.010684394
140	0xbba43051	-0.0050106426
141	0x3ce57337	0.02800904
142	0xbc6a10fd	-0.014286277
143	0xbcce59c9	-0.025189297
144	0x3cef1db4	0.029188968
145	0x3b068661	0.0020526873
146	0x3d5fded5	0.05465587
147	0xbb16a8ae	-0.0022988725
148	0x3cc46626	0.02397449
149	0x3ced59fe	0.028973576
150	0x3d8d67d8	0.06904572
151	0x3dc99dc8	0.098445475
152	0x3dce13dd	0.10062382
153	0x3cebff0a	0.028808136
154	0xbcbe743c	-0.023248784
155	0xbcc6471c	-0.02420383
156	0x3b27c63e	0.002560034
157	0x3d01dcff	0.0317049
158	0x3c820f8d	0.015876556
159	0xbc8ce056	-0.017196815
160	0xbc07791e	-0.008268623
161	0xbd0ff042	-0.035141237
162	0x3d955fd9	0.07293672
163	0x3c8e6065	0.017379949
164	0x3cf0ab6e	0.029378619
165	0x3c989a99	0.018628405
166	0xbc6bc3cc	-0.014389943
167	0x3c060dbc	0.0081819855
168	0x3cc35ab1	0.023846956
169	0x3c9049d5	0.01761333
170	0x3d3630ac	0.04448001
171	0x3c32567a	0.010884875
172	0x3d045d29	0.032315407
173	0x3d1556ce	0.036459737
174	0x3cb8b031	0.022544952
175	0x3d4c162f	0.049825843
176	0x3bd39b90	0.0064577535
177	0xbc74fb3c	-0.014952477
178	0x3c9ac9f0	0.01889512
179	0xbce1cf3d	-0.02756464
180	0x3d0fc09d	0.0350958
181	0x3d1c10de	0.038102023
182	0x3d0864f5	0.033299405
183	0xbc5d6132	-0.013511943
184	0x3c2a6a12	0.010401266
185	0x3cc569ec	0.024098359
186	0x3c7e5107	0.015522248
187	0x3d0bf350	0.034167588
188	0xbc87f775	-0.016597489
189	0x3b899886	0.0041990904
190	0x3bdb7b46	0.006698045
191	0x3c89ee8e	0.016837385
192	0x3d1aa657	0.03775629
193	0x3ccbf310	0.024896175
194	0x3c92e8a9	0.017933207
195	0xbc78e9aa	-0.015192429
196	0x3b94ce59	0.0045412
197	0x3b9d9849	0.0048094136
198	0x3d382bee	0.04496377
199	0x3c7bc70f	0.0153672835
200	0x3cc194f3	0.023630595
201	0x3d9f0f8d	0.07766638
202	0x3cd1c7a6	0.025607895
203	0xbcaf9e6a	-0.021437842
204	0x3c76568d	0.015035284
205	0xbc6f2647	-0.014596528
206	0xbd6f3916	-0.05840405
207	0x3c913ff5	0.017730692
208	0xbd3529b7	-0.044229236
209	0x3ccbac8b	0.024862548
210	0x3ce5760f	0.028010396
211	0x3d43481a	0.047676183
212	0x3b140c25	0.0022590247
213	0x3d143476	0.036182843
214	0x3cc644dd	0.024202758
215	0x3cd05a07	0.025433553
216	0x3b6e5bd8	0.003637066
217	0x3c61118c	0.013737094
218	0xbc62ce95	-0.013843198
219	0xbc2feb11	-0.010737197
220	0xbca6e529	-0.020372944
221	0x3db0b3e8	0.086280644
222	0x3d7046e8	0.05866137
223	0x3cd51fbf	0.026016114
224	0x3c566aac	0.013086956
225	0x3d1e9e17	0.038724985
226	0x3d3ccc4b	0.046093266
227	0xbc5346b4	-0.012895275
228	0xbd24e3f9	-0.040256474
229	0x3d9f0a16	0.077655956
230	0x3cb72faa	0.022361595
231	0x3c7d9417	0.015477202
232	0x3946237e	0.00018895973
233	0x3d044f5e	0.032302253
234	0x3b2024f7	0.0024436095
235	0x3a5daf9c	0.0008456649
236	0xbc00f22c	-0.007870238
237	0xbc7bc604	-0.015367035
238	0xbc09998f	-0.008398428
239	0x3ce5f42f	0.028070537
240	0x3d13aba6	0.03605237
241	0x3d526c97	0.05137309
242	0x3c58aa87	0.013224251
243	0x3be42a12	0.006963023
244	0x3c6f8cf4	0.014621008
245	0x3d19712e	0.037461452
246	0x3d98155a	0.074259475
247	0x3d33c94e	0.04389315
248	0x3dc7369d	0.097272135
249	0x3d8bc368	0.0682438
250	0x3d280daa	0.041028656
251	0x3bc41432	0.005983853
252	0x3caec474	0.02133391
253	0xbcdd1a9b	-0.026990226
254	0x3bd216f5	0.006411428
255	0xbcfe6a79	-0.03105663

fc1.bias f4 [32]
0	0xbb076586	-0.0020659878
1	0x3d4f6d59	0.05064139
2	0xbd0d9465	-0.03456535
3	0x3d0181a8	0.03161779
4	0xbd36eb8d	-0.044658232
5	0x3c51ef93	0.012813467
6	0xbc08c20c	-0.008347046
7	0xbc846295	-0.016160289
8	0x3ce380cf	0.027771382
9	0x3d097bbc	0.033565268
10	0x3d9a3392	0.075293675
11	0x3c32a82e	0.010904355
12	0x3c0dd537	0.008656791
13	0x3d428cd5	0.04749759
14	0xbcef8369	-0.029237466
15	0xbba99334	-0.0051750187
16	0xbcc845fb	-0.024447432
17	0x3c1c2c0a	0.009531984
18	0x3c1b94ec	0.009495955
19	0x3cbf149b	0.023325255
20	0x3d0e943a	0.03480933
21	0x3c48865a	0.012239063
22	0xbcdf4138	-0.027252778
23	0x3cf59ff6	0.029983502
24	0xbca52a19	-0.020161675
25	0x3d46a9ab	0.04850165
26	0x3c95eb09	0.01830055
27	0xbd2cdac6	-0.042200826
28	0xbc93e0c7	-0.018051518
29	0x3c3866f3	0.011255014
30	0x3d34a864	0.044105902
31	0x3cfebb7e	0.031095263

fc2.weight f4 [10, 32]
0	0xbf1367a1	-0.5758
1	0xbe91c8a2	-0.28473383
2	0xbe81146a	-0.25210887
3	0x3d7420aa	0.059601463
4	0xbde02d2e	-0.10946117
5	0x3de64251	0.112431176
6	0x3d9464b1	0.07245768
7	0xbea1ab9c	-0.3157624
8	0x3d91842f	0.0710529
9	0xbe4aaf57	-0.1979345
10	0x3db58e69	0.08865053
11	0x3e68b99d	0.22727056
12	0xbe4f6fd2	-0.202575
13	0x3d948c01	0.07253266
14	0x3c89ad7a	0.016806353
15	0xbe23935c	-0.15974182
16	0xbe86ea5b	-0.26350674
17	0x3e49a480	0.19691658
18	0x3c45337b	0.0120362
19	0xbe7befb8	-0.24603164
20	0x3e701b17	0.23447834
21	0x3e820549	0.25394657
22	0xbe454f77	-0.19268595
23	0x3e000e87	0.12505542
24	0xbe1a0830	-0.15042186
25	0x3dfc5a87	0.12321954
26	0xbcf009ae	-0.02930149
27	0xbe7de0eb	-0.2479283
28	0xbe325522	-0.17415288
29	0xbead53a2	-0.3385287
30	0xbe1dd42d	-0.1541297
31	0x3e0946ce	0.13405916
32	0xbebecada	-0.37264138
33	0x3e7021ab	0.23450343
34	0x3e8c6f4b	0.2742866
35	0x3dbe55f0	0.09293735
36	0x3e0b8b81	0.13627435
37	0xbeabba73	-0.33540687
38	0x3e2780f1	0.16357781
39	0x3d4f8697	0.050665464
40	0xbe62b99c	-0.22141117
41	0x3dcee3fc	0.10102078
42	0xbe484556	-0.195577
43	0x3c9cdf79	0.019149529
44	0xbd8eba22	-0.06969096
45	0x3e3f7f9c	0.18701023
46	0xbe59bdd0	-0.21263814
47	0xbc9c4742	-0.019076947
48	0x3e64e853	0.2235425
49	0xbe0601f2	-0.1308668
50	0xbe3efdb8	-0.18651474
51	0x3e6cb9df	0.23117779
52	0xbe554680	-0.20827675
53	0xbdc855dd	-0.09782002
54	0x3e3e8279	0.18604459
55	0xbe93fb24	-0.28902543
56	0xbd0876e2	-0.0333165
57	0xbebfb341	-0.37441447
58	0xbcb1e09f	-0.021713553
59	0x3e365609	0.17806257
60	0x3d8ecfaf	0.06973206
61	0xbe1efdcf	-0.15526508
62	0xbe883604	-0.2660371
63	0x3da17910	0.07884419
64	0xbea659c8	-0.32490373
65	0x3e05684a	0.13028064
66	0x3e6cf7bd	0.2314138
67	0xbdf1df8c	-0.11810216
68	0xbd8472f7	-0.0646724
69	0xbdc9d52f	-0.09855115
70	0x3dad0246	0.08447699
71	0xbeb29003	-0.34875497
72	0xbde50aaa	-0.11183675
73	0x3c80e332	0.015733335
74	0x3e3fd5fc	0.18733972
75	0xbd354948	-0.04425934
76	0xbea6b957	-0.32563278
77	0x3e1ac19f	0.15112923
78	0xbe2bed34	-0.16789705
79	0xbd7413d2	-0.059589215
80	0xbecf2562	-0.40458208
81	0x3e7fc78a	0.24978462
82	0x3d11ebe9	0.035625372
83	0x3d8952bf	0.06705236
84	0xbdb3b917	-0.087755375
85	0xbebe6073	-0.3718296
86	0x3e03794b	0.12839238
87	0x3e4168f8	0.18887699
88	0xbc19ce6c	-0.009387594
89	0x3d90c703	0.070692085
90	0x3e2d7d3b	0.16942303
91	0x3e731efe	0.23742291
92	0xbe5b9682	-0.21444133
93	0xbea2cade	-0.317954
94	0x3e7bf509	0.24605192
95	0x3e166c57	0.14689766
96	0x3e68dd05	0.22740562
97	0x3e4a6e64	0.19768673
98	0xbd3ac860	-0.04560125
99	0x3d087f0f	0.033324298
100	0xbd52bc53	-0.05144913
101	0xbe83e686	-0.25761813
102	0xbcdf9204	-0.027291305
103	0x3ddf10df	0.1089189
104	0x3e0cfd0f	0.13768409
105	0x3be1c12a	0.006889482
106	0x3e0e83b8	0.13917434
107	0x3e11f193	0.1425231
108	0x3bae3244	0.0053160507
109	0x3cf95598	0.030436322
110	0xbdbbf36e	-0.0917729
111	0x3a359013	0.0006926071
112	0xbea9eb40	-0.33187294
113	0x3e332255	0.17493565
114	0x3e2b9bb0	0.16758609
115	0xbe2ab522	-0.16670659
116	0xbe057ffd	-0.13037105
117	0xbcc3e844	-0.023914464
118	0x3e52b87b	0.20578186
119	0x3d94d873	0.07267847
120	0xbd957502	-0.07297708
121	0xbde84c1a	-0.1134264
122	0x3e1a008d	0.15039273
123	0x3da9de24	0.08294323
124	0xbe80df8a	-0.25170547
125	0x3d8e9925	0.06962804
126	0xbea44f11	-0.32091573
127	0x3de0aeec	0.10970864
128	0x3e4a82e9	0.19776501
129	0x3d1eb0be	0.038742773
130	0x3d94ccdd	0.07265637
131	0xbe5d4f46	-0.21612272
132	0x3e01d7a3	0.12679915
133	0x3d8a4c36	0.06752817
134	0x3d406b71	0.046977464
135	0x3e0b22d0	0.13587499
136	0x3dcb1537	0.09916156
137	0xbebc707b	-0.36804566
138	0xbb0c892d	-0.0021444068
139	0xbef286f6	-0.47368592
140	0xbf009336	-0.50224626
141	0xbe83a992	-0.2571531
142	0x3e5639a6	0.20920429
143	0xbca14fd5	-0.019691387
144	0x3e0e990a	0.13925567
145	0xbe3fcfa6	-0.18731555
146	0xbdb32cd4	-0.08748785
147	0xbe4abb0e	-0.19797918
148	0xbe43a4ef	-0.19105886
149	0x3e286adc	0.16447014
150	0x3dc5eeaf	0.09664666
151	0xbf196fcb	-0.5993621
152	0x3de9bc18	0.11412829
153	0xbd68070a	-0.056647338
154	0x3e7b3c05	0.24534614
155	0xbdfcf87c	-0.12352082
156	0x3e4f92ec	0.2027089
157	0x3e2709e8	0.16312373
158	0x3e1a6dea	0.15080991
159	0xbeb1fd38	-0.34763503
160	0x3e8b7615	0.27238527
161	0x3dc294af	0.095010154
162	0x3e18413a	0.14868632
163	0xbe6a9ed2	-0.22912148
164	0x3e2c02d0	0.16797948
165	0x3d185adf	0.037196036
166	0xbe5e7aa8	-0.21726477
167	0x3e1559c9	0.14585032
168	0xbe214be7	-0.1575161
169	0xbd3d4462	-0.046207793
170	0x3d652cd0	0.05595094
171	0xbd936e91	-0.07198823
172	0x3edad8e2	0.42743593
173	0x3dfcd961	0.12346149
174	0x3e157da7	0.14598714
175	0x3e142ecf	0.14470981
176	0x3e0907b7	0.13381849
177	0xbe10cbee	-0.14140293
178	0xbec78bc4	-0.3897382
179	0x3e480d1b	0.1953625
180	0x3e44b550	0.1920979
181	0x3e0d7548	0.1381427
182	0xbe26cd5b	-0.16289274
183	0x3e220231	0.15821148
184	0x3e40333e	0.18769547
185	0xbd071d34	-0.032986835
186	0xbef2b4d2	-0.4740358
187	0xbef4f50a	-0.478432
188	0xbdba748f	-0.09104263
189	0x3d63637a	0.05551479
190	0x3d7204de	0.059086673
191	0x3d90ea89	0.07075984
192	0xbed34cd3	-0.4126955
193	0xbe975b60	-0.295619
194	0x3b23b61b	0.002498037
195	0x3c6509a5	0.01397935
196	0x3c988241	0.018616797
197	0x3df06974	0.117388636
198	0x3e72585d	0.2366652
199	0xbe6facfb	-0.2340583
200	0x3dfa77ed	0.12229905
201	0x3e1edf70	0.15514922
202	0xbda56557	-0.0807597
203	0xbc826a93	-0.01591996
204	0x3ea33aaa	0.31880695
205	0x3e213752	0.1574376
206	0xbe105a2a	-0.14096895
207	0xbd87be13	-0.06628051
208	0xbe35cdae	-0.17754242
209	0xbe62acaf	-0.22136186
210	0xbe7d29f6	-0.24723038
211	0x3e45caed	0.19315691
212	0xbd8ca8c3	-0.06868126
213	0x3e06cb2e	0.13163444
214	0x3e0f2c99	0.13981856
215	0xbe399f9c	-0.18127292
216	0xbe96c457	-0.2944667
217	0x3b5e35a0	0.0033906475
218	0x3dd819e5	0.10551814
219	0xbecdf81c	-0.40228355
220	0xbe8341a4	-0.25636017
221	0xbe39e2f1	-0.18152978
222	0x3e830fbf	0.2559795
223	0xbebefccd	-0.37302247
224	0xbe939e00	-0.28831482
225	0xbe37dea5	-0.17956026
226	0x3e9f32aa	0.3109334
227	0x3e20787d	0.15670963
228	0xbde5cfa0	-0.11221242
229	0xbe876be5	-0.26449504
230	0xbea96bdb	-0.330901
231	0x3a22d5a7	0.0006211646
232	0xbdd36f03	-0.10323908
233	0x3e08c42f	0.13356088
234	0xbe858eb7	-0.26085445
235	0xbe552351	-0.20814253
236	0x3e0f2588	0.13979161
237	0xbe668c0b	-0.2251436
238	0x3d178802	0.03699494
239	0x3cdfa73e	0.027301427
240	0xbd298895	-0.04139002
241	0x3e7bf1b0	0.24603915
242	0x3e0aecc0	0.13566875
243	0xbe78ded0	-0.24303746
244	0x3e9987dd	0.29986468
245	0x3d878828	0.066177666
246	0x3e9521ae	0.29127258
247	0xbe227ae9	-0.15867199
248	0x3e7ebfc8	0.24877846
249	0x3d916c3f	0.071007244
250	0x3e05a4cb	0.13051145
251	0x3e589e62	0.21154168
252	0x3c145d9b	0.00905552
253	0xbd45dffc	-0.04830931
254	0xbe847541	-0.25870708
255	0x3e297e2f	0.16552041

fc2.bias f4 [10]
0	0x3d3432da	0.04399381
1	0xbd589c0a	-0.052883185
2	0xbd443df9	-0.047910664
3	0xbc78e5ac	-0.015191477
4	0x3e34213b	0.17590801
5	0xbd855ac6	-0.06511454
6	0x3e031006	0.12799081
7	0xbe17deed	-0.14831133
8	0x3da863ec	0.082221836
9	0x3ce191de	0.027535375
