data/models/two-layer_hidden-size-64_params.pth (torch, 206349 bytes, 4 tensors)

fc1.weight f4 [64, 784]
000000 7e c0 19 3d 6d cc 75 bc d3 86 e2 3c cd 1f e3 3c
       0.03753709 -0.015002352 0.02765218 0.027725125
000010 25 de 6d 3b 8f ed 93 bc fb 69 d3 bc f8 b4 7b 3c
       0.0036295739 -0.018057613 -0.025807371 0.0153629705
000020 59 dd ee 3c 15 bf 4a ba 0c 28 73 bb 74 86 49 bc
       0.029158281 -0.0007734162 -0.0037102727 -0.0123001225
000030 b2 8e 19 bc 3d 5c 40 3c ad fe 28 3c d5 13 31 3c
       -0.0093724 0.011740741 0.010314626 0.010807951
000040 11 eb ac bc 92 18 10 3d bf e4 d9 bc 9d 52 a6 3b
       -0.021108182 0.035179682 -0.026598332 0.0050757662
000050 f7 9c c7 3c 05 7a ed bb be b9 aa 3c bf b6 95 bc
       0.024366839 -0.007247212 0.020840522 -0.018275617
000060 fd 6f ab 3b 34 6d 8d 3a 5c 61 82 bc c5 2a 00 ba
       0.005231856 0.0010789991 -0.015915565 -0.00048891857
000070 5a e1 02 3d 62 cb 07 3d bd c1 b3 3b dd 36 e1 3b
       0.031953193 0.033152945 0.005485742 0.0068729953
000080 de 79 0b 3c 34 91 2c bb f0 86 8e bc ec 81 10 bc
       0.008512942 -0.0026331665 -0.017398328 -0.008820038
000090 6a 21 64 bc a3 22 3b bc b9 e0 91 3c 4f 02 75 bc
       -0.013923982 -0.011421832 0.017807351 -0.014954164
0000a0 67 22 f9 bc 28 af 8a bb d6 e3 01 3c bb 93 10 3c
       -0.030411912 -0.004232306 0.0079278555 0.008824284
0000b0 a9 57 24 3d 1b 7c 51 bc 46 00 fe bc 17 4d c7 bc
       0.04012266 -0.012785937 -0.03100599 -0.024328751
0000c0 95 ae 31 3c c2 28 ba 3c fa e5 d7 ba 22 ca 70 bc
       0.010844846 0.022724513 -0.0016471737 -0.01469663
0000d0 0a 41 96 3c 28 56 26 3d 91 d8 c5 3b 23 48 e8 3c
       0.01834156 0.04060951 0.0060377796 0.02835471
0000e0 c3 f2 91 3b 3c 44 4b bc 09 a9 d3 3c b6 be af bc
       0.0044539883 -0.012406405 0.025837438 -0.021453243
0000f0 dc 60 4b 3c 98 e0 f7 3c 95 87 f2 3c ac 9e ac bc
       0.01241323 0.030258462 0.029605666 -0.021071754
000100 5e 2f 4a bb 2e c1 bd 3c 05 ae 43 3b c3 bc 27 bd
       -0.0030850987 0.023163404 0.0029858362 -0.0409515
000110 d2 88 ac bc 31 e6 44 bd 0d 59 0f bd a1 03 7a 3c
       -0.021061335 -0.04807109 -0.034997035 0.015259654
000120 66 33 84 3c c9 53 24 bc 27 81 f9 3c ee e3 43 bc
       0.01613779 -0.010029742 0.030457092 -0.011956198
000130 35 46 3f 3c d8 8b 1b bb 39 57 de bc 66 00 41 bc
       0.0116744535 -0.0023734476 -0.0271412 -0.01177988
000140 da b7 8d 3c c7 e4 9a 3c 55 be 79 bc 01 73 cd bb
       0.017299581 0.018907918 -0.015243133 -0.006269813
000150 21 9f ff bb 5c dd 71 3c 02 1f 1d 3d fe 31 ec 3b
       -0.007800952 0.014762249 0.03835965 0.007208108
000160 3b fd 95 bc a4 85 63 3c 53 6b 07 3c a2 7b 5d 3a
       -0.018309226 0.013886843 0.008265334 0.00084489037
000170 8a 69 74 bd a2 17 98 bd 8c 00 37 bd 10 90 ca bc
       -0.059670962 -0.074263826 -0.044678256 -0.024726897
000180 ca a5 e6 bd 96 28 cd bd 7d eb 0a bc 98 5f 2f 3b
       -0.112620905 -0.10017507 -0.008478996 0.002675986
000190 c2 c0 a7 3d b3 07 de 3d 42 66 be 3d 1a a5 b5 3d
       0.081910625 0.10841312 0.09296848 0.08869381
0001a0 e9 bb 59 3d 54 5c a8 bc 1a a4 5c 3d 16 8e 0d bc
       0.05315772 -0.020551838 0.053867437 -0.008639833
0001b0 2d 50 03 3d 2f d1 32 bc f2 af 69 3c f0 a8 1b 3d
       0.032058883 -0.010914131 0.01426314 0.03800291
0001c0 c6 0f 06 3d aa 82 88 bc 2a e1 88 bb 1c 32 b0 3b
       0.032729886 -0.016663868 -0.0041772323 0.0053770673
0001d0 92 39 3c ba 38 9a 54 3b 27 f4 12 bd a0 eb 01 bd
       -0.00071802095 0.0032440554 -0.035877373 -0.03171885
0001e0 d5 6f b9 bd e2 21 b2 bd 67 ed 2f bd d6 8c 4e bd
       -0.090545334 -0.08697869 -0.042951014 -0.05042728
0001f0 7b 16 9b bd bc 43 d7 bd c7 d2 06 bd 29 f5 2c bd
       -0.07572647 -0.10510966 -0.032915857 -0.04222599
000200 d6 4e 83 3d ef 2e 5c 3d 4d e6 06 3e 30 be 18 3e
       0.06411521 0.053755697 0.1317379 0.14916301
000210 52 28 17 3e 1f 89 c9 3d 76 3c 6c 3d 75 60 9a bc
       0.14761475 0.09840607 0.057674848 -0.018844822
000220 18 79 12 bc eb 75 60 bc e6 c0 a8 3c 3f 44 81 3c
       -0.008940004 -0.013699989 0.020599794 0.015779613
000230 7d ee 9b bc bc 09 7d 3c 56 8c 2a 3c 2e 6a 9f 3c
       -0.019034619 0.015444215 0.010409435 0.01945981
000240 f8 a8 8e bc a7 7a 9a 3c f4 bd 91 bc 1c e9 89 bd
       -0.017414555 0.018857313 -0.017790772 -0.06733915
000250 e3 f6 cc bd 26 d1 43 bd 3f 32 a3 bd 6f 55 e1 bd
       -0.100080274 -0.04780688 -0.07968568 -0.11002623
000260 4c 55 ae bd 3d f6 d9 bd bb 1e 60 bd 68 47 82 bd
       -0.08512363 -0.10642669 -0.054716807 -0.06361276
000270 44 50 1e 3c ac 83 11 3d c1 60 0d 3e 8a 0a 5d 3e
       0.0096626915 0.035525963 0.1380644 0.21586052
000280 bc b6 1d 3e 65 d1 be 3d 03 09 8e 3d 3c a7 4d 3d
       0.15401739 0.093172826 0.069353126 0.050208315
000290 dd 34 e1 bb 87 fe bd bc 78 bc 54 3c 52 03 13 3c
       -0.006872757 -0.023192657 0.012984388 0.00897296
0002a0 c6 4a 26 3c f3 c4 a5 3c 37 83 b2 bc 60 87 62 3d
       0.010149663 0.020235514 -0.021791084 0.055304885
0002b0 05 22 32 3c c1 41 86 3d 86 93 be 3b e7 98 09 bc
       0.010872369 0.0655551 0.005815926 -0.008398271
0002c0 17 07 d9 bc 3a 79 6c bd 51 6a 96 bc da 6f fd bc
       -0.026492639 -0.0577328 -0.018361242 -0.030937124
0002d0 75 25 d8 bc 27 6f 5e bc 8d 52 7a bd 6e cc f9 bd
       -0.026385048 -0.0135763055 -0.061113883 -0.12197195
0002e0 19 67 e2 bd b7 7b 90 3c 44 27 19 3e 11 82 1d 3e
       -0.110548206 0.017637117 0.14956385 0.15381648
0002f0 96 05 3a 3e 88 83 2d 3e 71 db c4 3d 57 51 a9 3d
       0.18166193 0.16944706 0.096121676 0.082674675
000300 a1 96 26 bd 0c 59 70 bd 36 eb 58 3c 3f d8 8b bc
       -0.040670995 -0.05867867 0.013239672 -0.017070888
000310 ed 75 d9 bc 1d 33 23 3d d2 56 a6 3c 12 91 55 3d
       -0.02654549 0.039843667 0.020305071 0.052140303
000320 33 d7 16 bc 21 dc 03 3c 0d 52 ed 3c 8a 3d a3 3c
       -0.009206581 0.008048088 0.028969789 0.019926805
000330 88 9c ec bc df e5 6f 3b 39 3c 65 bb e7 0e a6 3b
       -0.028883234 0.003660552 -0.0034978522 0.0050676945
000340 ac 54 f4 3c 4b 04 bf bc da 2c 8c bd 78 5e 1e be
       0.029825531 -0.023317477 -0.06844492 -0.15465724
000350 b4 da f1 bd 84 83 ba bc e4 59 ee 3d 2c 52 22 3e
       -0.118092924 -0.02276779 0.11638239 0.15851659
000360 f7 dd 29 3e c7 71 b7 3d 4c d5 81 3d d7 88 d3 3c
       0.16588579 0.08957248 0.06339511 0.025822086
000370 8e 6b 0b 3c 6a 92 2e bd a1 59 1b bd ce 08 c5 3c
       0.00850953 -0.0426201 -0.037927274 0.02405205
000380 4f 89 02 bc 7b 14 1f 3d 88 b6 2c 3d 25 67 a4 3d
       -0.007967307 0.03883789 0.042166263 0.08027486
000390 92 58 b1 3c c0 e3 07 3d 12 3a 40 bc 9c c4 82 3d
       0.021648679 0.033176184 -0.011732595 0.063851565
0003a0 cd 4a d6 3d 89 6a 07 3e 79 b5 74 3d 0c c8 9b 3d
       0.10463486 0.13224234 0.05974338 0.07606515
0003b0 03 0b b7 3d 42 fb cf 3c b2 2b cd bd 47 fd 7a be
       0.08937647 0.025388364 -0.100181 -0.2451068
0003c0 20 85 2c be d5 10 0a 3d bf f8 44 3e 25 a9 1a 3e
       -0.16847658 0.03370746 0.19235514 0.15103586
0003d0 4f fa 19 3e 4a 4c 25 3d 70 e7 d4 3c 6b a0 4a bd
       0.15036891 0.040355958 0.025989264 -0.049469393
0003e0 14 6f 08 be 0b a0 8f bd 2c 84 b2 bc b0 bf 67 bc
       -0.13323623 -0.07012948 -0.02179154 -0.014144823
0003f0 9c 57 22 3d f0 6e 50 3d 11 2c ef bb 87 a3 f0 3c
       0.039634332 0.05088705 -0.0072989543 0.02937485

fc1.bias f4 [64]
000000 99 ea d1 bc d5 9a 37 3d fd e5 32 bd 9f f7 58 bc
       -0.02562456 0.044825394 -0.043676365 -0.013242631
000010 63 95 69 3c eb 17 57 bc 27 8a 23 bc dc d2 44 bd
       0.014256808 -0.013128261 -0.009981669 -0.048052654
000020 d8 28 0e 3d 22 ff 1c bb 0b 23 ef bc a2 f2 fe 3c
       0.03470692 -0.0023955782 -0.029191514 0.031121556
000030 42 47 1b bc cc e8 41 bc a4 58 b1 bc ef f7 44 3c
       -0.009477438 -0.011835288 -0.021648712 0.012022003
000040 b9 72 5f 3d 42 82 3c bc 1f 5a d7 bc da e3 26 3b
       0.054552767 -0.011505665 -0.02628809 0.00254654
000050 3a da f3 bc 1d 12 be bb 54 bf a1 bb 1d a6 5e bd
       -0.029767144 -0.005800499 -0.004936138 -0.054357637
000060 3f 88 6b 3b 44 b6 06 3d bd f4 05 bd 62 61 36 bd
       0.0035939363 0.032888666 -0.032704104 -0.044526465
000070 3d 23 ed bc 9a 9d 1f bd 3c 2a b1 3c 2a f7 8a 3c
       -0.028947467 -0.03896866 0.021626584 0.01696356
000080 f2 03 4c bc 96 8c 1c bb 0c 05 b0 3c 94 bd 93 3c
       -0.0124521125 -0.0023887507 0.021486782 0.018034734
000090 f1 a1 ed 39 25 05 f6 3b 47 50 08 bd f3 ff 16 3d
       0.00045324818 0.0075079375 -0.033279683 0.036865186
0000a0 aa 09 20 3d 7f 22 f0 3a 55 88 13 3c 4d 10 9a 3c
       0.039071716 0.0018320828 0.009004672 0.018806601
0000b0 2e b8 22 ba 93 09 35 3d fc 12 ba 39 57 d2 d5 bc
       -0.00062072545 0.044198584 0.0003549083 -0.026101274
0000c0 16 f3 db bc 52 12 51 3c 19 67 2b bd 93 f1 03 bd
       -0.02684931 0.012760716 -0.04184637 -0.032212805
0000d0 a6 72 bb 3c 04 32 54 bc e9 00 cd 3a 84 0b e6 bc
       0.022881817 -0.012951378 0.001564053 -0.028081663
0000e0 ee 3a 28 3d 51 9c 1b bb ef fa ef bc bc e1 89 bc
       0.041071825 -0.0023744295 -0.02929446 -0.016831271
0000f0 87 a6 a8 3c 8b 6f 08 bd 33 d1 b7 bc ae 30 7e 3c
       0.020587219 -0.0333095 -0.022438621 0.015514536

fc2.weight f4 [10, 64]
000000 91 73 50 bc 57 80 ac bd 95 83 b3 3d bc b2 75 be
       -0.012722866 -0.084229164 0.08765332 -0.23993963
000010 ad 03 04 bd be 59 8a 3d 65 97 cb 3d e8 54 14 3e
       -0.032230068 0.06755398 0.099409856 0.14485514
000020 33 97 e5 bd e7 d0 3a be 25 22 8d bd 84 7a 28 3e
       -0.112104796 -0.18243752 -0.06891278 0.16452986
000030 3f 47 cc 3d 3b 69 0c bd f3 33 6f 3d ac 0b ad bd
       0.099745266 -0.034280043 0.058399152 -0.08449492
000040 83 01 24 be 59 2f 10 be 73 7b 80 be 28 ca 0c 3e
       -0.16016202 -0.14080562 -0.25094184 0.13748991
000050 67 77 4a bd ce b3 1b be ae 3a f4 bd ed dc a1 bd
       -0.049430277 -0.15205309 -0.11925255 -0.079034664
000060 05 12 2d 3e a8 89 07 bb 69 32 30 3d 92 91 a7 be
       0.16901405 -0.0020681415 0.043016825 -0.3272825
000070 a9 40 28 be 76 ee 86 bd 0b d5 5e 3e 38 a5 82 be
       -0.16430916 -0.065884516 0.21760957 -0.25516677
000080 11 95 57 3d eb f7 a5 3c b6 9f 68 3e 59 51 50 bd
       0.052632395 0.020259818 0.22717175 -0.05085883
000090 40 d9 10 3e f1 f5 b1 3d 49 6a 1e be 10 c2 81 bc
       0.14145374 0.08689488 -0.15470232 -0.015839607
0000a0 b2 bd f5 3c 49 87 23 bc 34 f5 5c 3d 77 aa 23 3e
       0.02999768 -0.009980985 0.05394478 0.15982996
0000b0 54 3d 29 3b ed c4 d3 3d ae fc 80 be 7c 88 0c 3d
       0.0025823908 0.10340295 -0.2519278 0.03430985
0000c0 8a b9 07 3e 14 75 62 be 7a f7 8f 3d c3 e0 21 3c
       0.13254371 -0.22114974 0.07029624 0.0098802475
0000d0 b5 6c ba 3c 3c 88 11 3e 15 49 65 be 81 ba ab bc
       0.022756914 0.14212126 -0.2239116 -0.020962955
0000e0 c7 f6 05 be 23 dd 8c be 64 7b ac 3d 29 6b dc 3d
       -0.1308242 -0.27512464 0.084219724 0.10762627
0000f0 c0 c6 82 3d 3c c9 4b 3d 6a 62 41 3e d0 70 19 be
       0.06385565 0.04975246 0.18885198 -0.14984441
000100 59 06 36 3e 5e dc 23 be 80 14 b9 3d f0 8e 54 bd
       0.17775859 -0.16002032 0.09037113 -0.05189413
000110 d3 ea 54 be fb f0 1c 3e 77 96 fe bb 43 0e 89 bd
       -0.20792703 0.15326302 -0.0077694017 -0.06692173
000120 99 5f 19 3e c6 b2 ad 3d 47 7b 3a 3e 3d 66 46 3b
       0.14977874 0.08481364 0.18211089 0.003027334
000130 79 24 d3 3d 93 33 c6 bd 9b 5c 2c be 1e 3e 36 3e
       0.10309691 -0.09677806 -0.16832201 0.17797133
000140 96 00 02 3d ed dd c3 3d fb 58 10 3e 3f 97 09 be
       0.03173884 0.09563813 0.14096443 -0.13436602
000150 04 41 22 be 73 ce cc 3d 2b 16 12 3e 71 47 52 3d
       -0.15845114 0.100003146 0.14266269 0.051337663
000160 29 06 ce bc 0b ea 09 3e 10 e8 9f 3d c6 35 5f 3d
       -0.025149422 0.13468187 0.07807934 0.05449464
000170 cc 83 88 3c c0 7d 8c 3d 10 9f 9c 3c 8a ca 8a bc
       0.016664408 0.068599224 0.019118816 -0.016942281
000180 b8 0b 86 be c7 93 ad 3d f1 c3 16 3e 25 74 1b 3d
       -0.26180816 0.08475452 0.14723183 0.03795256
000190 12 1a 02 3e 8b 45 f8 bd a2 6b 89 3e 4d e6 1d be
       0.12705258 -0.12122639 0.2683993 -0.15419884
0001a0 b5 c8 41 3b 99 80 9b 3c 50 20 e8 bc ce d0 25 bd
       0.0029569094 0.018982219 -0.02833572 -0.040482335
0001b0 49 77 07 3e 6e 28 0c be 80 79 f8 3d f1 28 19 be
       0.13229097 -0.13687298 0.12132549 -0.14957024
0001c0 bf 45 32 be 44 2d 9a be 31 25 c4 3d a0 a9 cc bd
       -0.17409419 -0.3011266 0.09577406 -0.09993291
0001d0 a0 7e d2 bd 38 4f c3 be ca cf 09 3e cb e7 84 be
       -0.10278058 -0.38146377 0.13458171 -0.25958094
0001e0 29 c7 ff bd 32 cb 3c 3e 26 65 e8 be 70 6b f5 bc
       -0.12489159 0.18436888 -0.4538967 -0.029958457
0001f0 f4 f8 0b bd 84 a5 cb 3d 6b a8 d5 bd a1 f3 39 be
       -0.034172967 0.09943679 -0.10432514 -0.18159343
000200 3c 42 01 bd 97 f9 db 3c 75 72 8b bc bf 61 7d 3e
       -0.031557307 0.026852412 -0.01702235 0.24744318
000210 d3 cf 3e 3e 15 07 2b be 72 91 32 3e ce 55 0c be
       0.18633966 -0.1670192 0.17438295 -0.13704607
000220 a2 fb f4 3d 84 20 75 be d5 c6 8a bd 76 b7 38 3e
       0.11962058 -0.23938185 -0.067762055 0.18038735
000230 9c 96 9f bc ed ea 00 bc 41 61 12 3e fa da 85 bd
       -0.019480996 -0.007868511 0.14294912 -0.06535907
000240 28 fc 95 bd 63 41 bb be 00 06 ba bc a3 9e 9a be
       -0.073234856 -0.36573324 -0.02270794 -0.30199155
000250 cc 03 3f 3d aa f9 ae bd a7 b5 29 3e c9 d6 4d be
       0.04663448 -0.085437134 0.16573201 -0.20101465
000260 9a 97 52 3d a7 79 60 3d 8d e1 a8 bd fb 91 da be
       0.05141411 0.054803517 -0.082461454 -0.426895
000270 f1 39 5d 3e 43 04 66 bd 39 0a 78 be 60 80 5a be
       0.21604134 -0.056156408 -0.2422265 -0.21338034
000280 46 02 be 3d 4e 16 29 3e a8 63 75 3e 9c 8f d1 bd
       0.092777774 0.16512415 0.23963797 -0.102324694
000290 c6 a4 1c 3e 6c 5c 3d 3e 29 c8 0a 3e ed 6b 0c 3e
       0.15297231 0.18492287 0.13552918 0.13713045
0002a0 c2 43 fa 3b bc e2 f7 bd 96 77 a7 bd 83 4b 1b 3e
       0.007637472 -0.12103793 -0.08177106 0.15165524
0002b0 fd 95 27 be a9 86 74 bd aa fe 10 3e 6e 1c 2d 3d
       -0.1636581 -0.059698734 0.14159647 0.04226344
0002c0 dc 7b cf 3c e2 23 84 3c 77 63 eb bd 15 41 51 bd
       0.025327615 0.016130392 -0.11493581 -0.051087458
0002d0 86 74 67 be 44 b4 e9 be c7 7f f7 3d 22 0e c3 3d
       -0.22603044 -0.45645344 0.120849185 0.0952418
0002e0 8f bf ac bd f7 21 01 3e 5b cc 53 bd ca ff bb bb
       -0.084349744 0.12610613 -0.05170856 -0.0057372795
0002f0 12 16 5b 3e f0 fc 22 3e 3f 2b 09 3e 41 36 2f bd
       0.21395138 0.159168 0.13395403 -0.04277635
000300 dd 64 1a 3d 2c ec 77 3d fb 4e 98 bd 80 7b f2 3d
       0.037693847 0.060527965 -0.07436939 0.11839962
000310 4e bd 80 bc d2 f6 41 be 12 b2 1b 3e 03 30 7e bd
       -0.015715268 -0.1894181 0.15204647 -0.062057506
000320 4d eb 43 be 07 c6 78 be 49 2d 17 be 11 58 ba 3d
       -0.19132729 -0.24294291 -0.14763369 0.090988286
000330 d4 c4 cc 3c ba 47 bf 3d 2e 8c 91 3d d4 97 98 3c
       0.024996199 0.09339853 0.07106815 0.018627085
000340 df d4 ed 3d b0 16 2e 3e 9c de 2a be e6 b4 07 bc
       0.116128676 0.17000842 -0.16686481 -0.008282876
000350 72 0c 6c be 44 78 4e 3e 94 09 93 be 43 95 57 be
       -0.23051623 0.20163065 -0.28718245 -0.21053033
000360 58 f6 62 be 71 b1 ee 3d 18 e8 99 3d d9 14 6c 3e
       -0.22164285 0.11654938 0.075149715 0.23054828
000370 05 05 8e 3c a4 d8 f4 bd c0 dc 72 bd ef c7 08 be
       0.017336378 -0.119553834 -0.059292555 -0.13357519
000380 fd 9f ca bd ad 42 69 be 4f 4f b1 bd 05 de 03 be
       -0.098937966 -0.22779341 -0.08657705 -0.12877662
000390 12 b5 9d 3d a9 3d bf bd d3 15 4b be 57 5a e9 bd
       0.07700552 -0.093379326 -0.19832544 -0.11394184
0003a0 0a 5c 5e 3e 17 43 c9 bd 7d 5c b4 3d 2c 13 b7 3d
       0.21714798 -0.098272495 0.08806703 0.089392036
0003b0 12 2a fb bd 06 09 d3 3d d1 32 02 3e 19 d1 1c be
       -0.12263884 0.103044555 0.12714697 -0.1531414
0003c0 73 6a 12 3e 78 6b 57 3e 7d 03 cf 3d 97 df a5 bd
       0.1429842 0.2103709 0.10108087 -0.08099287
0003d0 ef ff 91 3c 70 2d 01 be ae 2e 17 3e 58 06 05 3e
       0.017822234 -0.1261499 0.147639 0.12990701
0003e0 50 e8 54 3d 84 c5 c5 3c 70 b6 08 be f0 06 3f bd
       0.051979363 0.024142034 -0.13350844 -0.046637475
0003f0 50 ed 04 bc e1 bf d0 bd 64 0f 04 3d 7f f7 07 be
       -0.00811322 -0.10192848 0.03224124 -0.13278006

fc2.bias f4 [10]
000000 ac ed 14 3d 5a 91 df bd 36 f8 9e 3c 5c 26 12 3e
       0.036359474 -0.109163955 0.019405466 0.14272445
000010 f3 7c a4 3d 94 81 ae 3d 1a 37 cd bb 4f a2 e8 3d
       0.08031645 0.08520809 -0.006262672 0.11359083
000020 50 6b 7a 3d ce 86 c1 3b
       0.061137497 0.0059059625
