data/models/two-layer_hidden-size-128_params.pth (torch, 409879 bytes, 4 tensors)

fc1.weight f4 [128, 784]
000000 e4 40 e9 bc 3d 99 21 3c 03 03 e0 bc df 98 09 3d
       -0.028473325 0.009863195 -0.027345186 0.033593055
000010 d4 a7 83 3c e8 2c 89 bc 18 8f 87 3b 7e 1b 12 3d
       0.016071238 -0.016745046 0.004136931 0.03567075
000020 62 73 aa bb b8 b2 83 bc c1 48 03 3d 78 59 b7 bc
       -0.005201743 -0.01607643 0.032051805 -0.02238153
000030 ef 6d 00 3d ed a6 62 3c 9a 1d cf 3c 14 91 a1 bc
       0.03135484 0.0138337435 0.02528267 -0.019722499
000040 5e ce a7 bc f4 04 cf bc 7e 9b c3 bc ef 70 8c 3c
       -0.020484146 -0.025270917 -0.023877855 0.017143695
000050 b7 52 4f 3c 08 ec cb ba 8a 53 5e ba ac 1e 2e 3c
       0.012653998 -0.0015558014 -0.0008481076 0.01062743
000060 3c 51 a6 3c 5e dd bb bc 09 aa 03 bb dc 3c e5 bb
       0.020302407 -0.022932705 -0.0020090363 -0.0069957804
000070 c5 77 bb 3c e6 8a 1b 3d ed 45 e1 bc 47 83 5c bc
       0.022884259 0.03797426 -0.027499164 -0.013459033
000080 d9 70 00 bb 34 e0 99 3c d0 0e bf bb 77 b3 d7 bc
       -0.0019598512 0.018783666 -0.005830623 -0.026330693
000090 c0 09 1c 3a 02 d9 3f b9 9a 18 9b 3c cb f9 cd 3b
       0.00059523806 -0.00018296021 0.01893263 0.006285881
0000a0 4b 6a 12 3d 4e 66 9d bc ed 5c 9d 3c 9f 5d 29 bc
       0.0357459 -0.019213822 0.01920935 -0.010337262
0000b0 de 40 03 3d 87 57 ad bc 5d cd ac bc 7d 1c ba 3c
       0.032044284 -0.0211599 -0.021094019 0.022718662
0000c0 50 26 51 3c 8e 4f 15 3d 4c 86 25 bc a2 17 f4 bc
       0.012765482 0.036452822 -0.01010282 -0.029796425
0000d0 30 60 d7 3c bc 90 cd 3c 54 f4 e0 3c 0c 08 47 3a
       0.026290983 0.025093429 0.027460255 0.00075924466
0000e0 da a4 0b 3d 84 40 26 3c ce aa dd 3b 20 34 0f b9
       0.03409276 0.010147218 0.0067647463 -0.00013656961
0000f0 8b 56 b1 bb fc 84 62 bc 7b 3a 97 3b f1 4a c7 bc
       -0.005411928 -0.013825651 0.0046151257 -0.024327727
000100 a0 5c 18 3d d0 8a ed 3c 6f eb 0f bc c4 71 05 bc
       0.03719771 0.028996855 -0.008784159 -0.0081448
000110 14 65 e7 3b 84 89 68 3d 03 fa c8 3c c0 c5 b1 3c
       0.00706161 0.05677177 0.024533277 0.02170074
000120 28 a8 20 3d d0 69 99 3c 01 7d d1 bc 0e db b1 ba
       0.039222866 0.018727213 -0.025572302 -0.0013569312
000130 4e 6a f2 bb 4d 13 bb 3c 81 5a ae 3c 7a 86 64 bb
       -0.0073979264 0.022836352 0.02128339 -0.0034870193
000140 da 00 9b bc f0 59 9d 3c f4 80 00 bd d9 75 de bc
       -0.018921304 0.019207925 -0.03137298 -0.027155804
000150 63 50 27 bc 02 a9 05 3b 50 bf 01 3d a0 af 19 3d
       -0.010212037 0.0020394926 0.03167659 0.037521005
000160 d1 c6 05 3d c7 56 f1 3c d1 f9 0c 3d d7 28 74 3b
       0.03266031 0.029460324 0.03441793 0.0037255788
000170 79 18 72 3d a5 37 a1 3a f6 04 47 3d 6d ef 76 3d
       0.05910537 0.0012299909 0.048588715 0.060286928
000180 50 b8 91 3d 7b 10 63 3d 71 4e 50 3d 63 8f 4d 3d
       0.07115233 0.05543564 0.050856058 0.050185572
000190 2e e6 15 3c b6 eb e9 b9 2a 58 69 3c 32 34 21 3d
       0.009149117 -0.00044616841 0.014242211 0.039356418
0001a0 c6 e5 cc bc b7 6a dd bc 6b ca 70 bd 8e ca 9c bc
       -0.025011908 -0.027028425 -0.05878679 -0.019139554
0001b0 6d 8f 1b 3c e1 a2 f2 bb 3c b7 d8 bc d1 6c 0a 3c
       0.009494645 -0.0074046706 -0.02645456 0.008448795
0001c0 cd fa bb 3c 4a 66 95 bb 10 74 20 3b 59 1c c5 bc
       0.02294674 -0.004559313 0.002448324 -0.024061369
0001d0 0c e8 d7 bc be 85 a7 3c 24 f1 9d 3d e0 e4 27 3d
       -0.026355766 0.020449515 0.077120095 0.040989757
0001e0 b5 3b a8 3d 3b f9 85 3d d7 72 18 3e 64 65 e3 3d
       0.08214513 0.065416776 0.14887558 0.11103323
0001f0 ad 2d 13 3e e6 4c 11 3e 48 86 fa 3d 19 86 e6 3d
       0.14372893 0.1418949 0.12232643 0.11256046
000200 69 82 ec 3d 08 fa ae 3d a9 b9 07 3d ca ba cb 3b
       0.11548311 0.085437834 0.033136044 0.0062173354
000210 94 5b 8c bd 2c 5a f7 bc 4d 02 c4 bc d2 4b 4b bd
       -0.06853405 -0.030194364 -0.023926878 -0.049632855
000220 cb 64 0d bd c2 d8 c1 3c cf da 12 3d a0 5c de 3c
       -0.03451995 0.023662928 0.035853203 0.027143776
000230 c6 c0 ef bc e7 a5 14 bc de b2 52 3c c5 b5 45 3c
       -0.029266726 -0.009072757 0.012860028 0.012067263
000240 4a 8b d5 3c fb 2f 96 3c e8 e1 a1 3d d1 05 3f 3c
       0.026067395 0.018333426 0.07904416 0.011659102
000250 72 73 27 bc a0 4a ef 3c e5 ba 45 3d cb 79 dd 3c
       -0.010220395 0.029210389 0.04827394 0.027035614
000260 ec fd 6b 3d 32 b7 30 3d fb c3 73 3d dd aa 3c 3d
       0.057615206 0.04314346 0.059513073 0.046061385
000270 92 9c dd 3d 13 c8 94 3d 32 2e 1a 3c da 2b 32 bc
       0.10820879 0.07264724 0.009410428 -0.010874713
000280 7c b7 a9 3c 8f ea 07 bd dd 03 a2 bc b7 9b 1c bd
       0.020717375 -0.033182677 -0.019777233 -0.03823444
000290 5a 5b 14 bd 99 83 4b 3b d6 aa 8a ba 3f 8c 12 3d
       -0.036219932 0.003105378 -0.0010579478 0.03577828
0002a0 e4 25 69 bb 53 7f f2 3c 33 12 45 bc 81 7c ca 3b
       -0.0035575563 0.029601729 -0.012028265 0.006179393
0002b0 94 94 38 3b 63 49 fc 3b db 29 8b 3b e8 50 24 3c
       0.0028164731 0.007699178 0.004246933 0.010029055
0002c0 9d 64 b9 bc 7a 4e 4f bd d0 4c 81 3c 97 49 18 3d
       -0.022630984 -0.05061195 0.015783697 0.037179556
0002d0 b5 ad 22 3d f1 11 8f 3d e4 e1 fd 3c 6b 78 22 3d
       0.03971644 0.06985844 0.030991502 0.03966562
0002e0 6d 30 b7 bb 45 46 c4 3a 85 b6 70 3c 5f 00 59 bd
       -0.0055904896 0.0014974555 0.014691954 -0.05297887
0002f0 74 de 66 3c dd e5 db bc 14 39 36 bd 93 30 2a 3b
       0.014091123 -0.026843006 -0.044488028 0.0025968894
000300 2a 06 00 bc 7c 3c 49 bc 10 d0 4b bc c5 ae af 3c
       -0.00781397 -0.012282487 -0.012439743 0.021445641
000310 ca f5 a7 3c 11 21 10 bc e1 08 06 3d be a5 02 3c
       0.020502944 -0.008796946 0.03272331 0.007974086
000320 7f 37 3c 3d d3 5f 9a 3d de de 0a 3c 9a 0a cc bc
       0.045951363 0.07537808 0.008475987 -0.024907399
000330 08 bd b3 3c da 5e 92 bd ca dd 1e bd 25 3e 64 bd
       0.021940723 -0.07146998 -0.038785733 -0.05572333
000340 aa bc 0d bd 1c 71 1a bd 8f 11 3f 3d 07 fa df 3b
       -0.034603752 -0.037705526 0.046647605 0.0068352255
000350 9b 12 1e 3c 97 c7 84 bc 7b 97 97 bd 66 78 b3 bd
       0.009647991 -0.016208453 -0.074019395 -0.087631986
000360 1c 27 5b bc 3a 58 10 bc 9d b1 18 bd fc db ab bd
       -0.013376024 -0.008810097 -0.03727876 -0.08391568
000370 4b d6 d3 bd 8b c4 8b bc ba ae bd 3c 1c a9 d9 bc
       -0.103436075 -0.017061492 0.023154605 -0.026569895
000380 a2 d6 52 bc 48 d5 98 3c dd 02 da bc d4 a1 88 bc
       -0.012868555 0.018656388 -0.026612693 -0.016678728
000390 ac 1f 85 3c 7e e5 0a 3c 82 17 ab 3c 60 84 e9 3b
       0.016250454 0.008477567 0.020885233 0.007126376
0003a0 5f 34 3a bd 85 3d 9b bd 19 d2 4b bd 50 0e ac bd
       -0.0454601 -0.07580093 -0.04976091 -0.084011674
0003b0 c9 5a 4f bc a7 de 50 bc 67 64 ad 3c e0 85 07 3d
       -0.012655922 -0.012748397 0.02116604 0.033086658
0003c0 2b 57 59 bc d3 4f 5a bd a8 3d 93 bd 4f ea c5 bd
       -0.013265411 -0.053298783 -0.07189494 -0.096638314
0003d0 77 56 b5 bd 15 13 9d bc fa 78 66 3a d7 7e cb bd
       -0.088543825 -0.019174138 0.00087918306 -0.09936302
0003e0 56 d4 84 bd ef 9c 0e bb d3 c5 97 bc 9c 3e ae 3c
       -0.06485812 -0.002176102 -0.018526947 0.021270089
0003f0 70 84 50 bc be f5 28 3c 23 00 73 bc 4c a1 e3 3b
       -0.012726888 0.010312496 -0.014831576 0.0069467183

fc1.bias f4 [128]
000000 a3 b4 83 3b ed e0 a6 3c 53 f0 09 3d 98 a8 93 bc
       0.0040193363 0.020370925 0.033676457 -0.018024728
000010 9d 00 22 3d b6 f9 e1 bc 3a 39 9c 3a af d8 fe 3c
       0.039551366 -0.027584892 0.001191891 0.031109182
000020 78 58 fe bc e4 72 66 bd e1 b4 13 3d 8f 47 15 3b
       -0.031048045 -0.056261912 0.03606117 0.0022778248
000030 17 c1 0f bd 7f ef 00 bd 71 cf 8b bc b3 aa f8 bc
       -0.035096254 -0.0314784 -0.01706669 -0.030354833
000040 dd 56 02 bd 9b 55 db bc dd de 31 3d d3 b4 16 3d
       -0.03182112 -0.026774218 0.04342543 0.03679354
000050 4e b8 1e 3c c0 18 7a bc 94 f5 13 3d 6f 50 82 3c
       0.009687496 -0.01526469 0.036122873 0.015907494
000060 c1 77 14 bc 5f ab 9b bc 2c 5a 12 bd 10 24 40 bc
       -0.009061755 -0.019002615 -0.035730526 -0.011727348
000070 bb 53 1f bd 6b ea 81 3c ab 5a ef 3c 93 9c 7a 3c
       -0.03889821 0.01585885 0.029218039 0.015296119
000080 e8 87 95 bc 20 22 8c 3c e4 08 4c bd 41 10 68 3a
       -0.018253282 0.017106116 -0.049813166 0.00088525197
000090 30 58 32 bb 18 87 47 bb b2 87 04 bd d0 16 b0 3b
       -0.0027213208 -0.0030445512 -0.03235597 0.005373813
0000a0 67 0d 98 3c 96 b7 2e 3b af 07 9f 3c d9 48 7c bc
       0.018561078 0.0026659719 0.019412844 -0.015398228
0000b0 a1 60 40 3c 8b 84 1c bd 51 76 12 bc 39 91 59 bc
       0.011741788 -0.03821234 -0.008939342 -0.013279253
0000c0 b6 9d 27 bc e6 81 6c bb 6b d2 c8 3b c9 eb 3f 3d
       -0.010230472 -0.0036088168 0.0061285994 0.04685572
0000d0 51 e8 dc bb 6d 87 0e bc 56 df fd bc ec 62 2f bd
       -0.0067415615 -0.00869928 -0.030990284 -0.04281895
0000e0 51 eb 02 3d 38 db 29 bc 22 f0 32 3d 0e 13 5d 3c
       0.031962696 -0.010367207 0.04368604 0.0134933125
0000f0 cd 7a 30 bc a8 05 23 bc 3f cb 1b bc 4e f8 f9 bc
       -0.0107714655 -0.009950079 -0.009508907 -0.030513909
000100 cd 3a 34 bd cd 0f f5 3b a1 5b 8b bc 02 77 73 3c
       -0.04400139 0.0074786902 -0.017011466 0.014859917
000110 bb d5 6a bc 79 ca 86 3c 30 af 08 bc 50 2b 5d 3c
       -0.014333184 0.016453968 -0.008342549 0.013499096
000120 62 65 cd 3b 05 bd 28 3c 06 2d 49 3b e9 c0 03 3c
       0.0062681893 0.010298972 0.0030697002 0.008041599
000130 74 eb 87 3c e0 fe 95 bc a5 ae e1 bc 23 f4 59 3a
       0.016591765 -0.01831001 -0.027549097 0.0008314272
000140 03 6f 51 bc dd 00 95 bc a7 99 b9 bc ac 3d 2f bd
       -0.012782815 -0.018188888 -0.022656275 -0.042783424
000150 97 e5 22 3d ed 46 7f bc fa d4 a8 3c 84 06 98 3c
       0.039769735 -0.015580875 0.020609368 0.018557794
000160 8a 55 9b bc be 42 6e 3c 40 39 a9 bc 34 4e 54 b9
       -0.018961687 0.01454228 -0.020657182 -0.00020247028
000170 4c 79 ea 3c 90 34 93 3b 55 18 a2 bc 0b c3 16 bd
       0.028622292 0.00449235 -0.019786993 -0.0368071
000180 ed f1 fd bc b7 cf 8c bc ae 76 11 b9 8a 51 db bc
       -0.030999148 -0.01718889 -0.00013872489 -0.02677228
000190 68 34 28 3c ef 55 46 bb 97 9d 2c 3c 8e 8e 6b bb
       0.010266401 -0.0030263623 0.010535619 -0.0035943124
0001a0 a4 0d 7d bc dd b1 6a ba ed b2 7c 3b 40 48 f3 bc
       -0.015445147 -0.00089528953 0.0038558797 -0.029697537
0001b0 6b ff d1 3c 48 e4 a7 bc 01 75 18 3a e6 4e 5b bd
       0.025634488 -0.020494595 0.0005815775 -0.05354204
0001c0 37 e8 e0 3c ba b5 b4 bc c3 3e dd bc 07 1a 77 3c
       0.027454479 -0.02205931 -0.027007466 0.015081889
0001d0 22 cc e9 3c 19 e6 97 3b 33 d4 bb bc 08 56 9f 38
       0.02853972 0.004635584 -0.022928333 7.5977354e-05
0001e0 df d7 3c 3d c2 fb 1c 3c 72 97 06 bc 41 0c 7a 3c
       0.04610431 0.009581508 -0.008214818 0.015261711
0001f0 2a b9 00 bd de 93 b4 bc cf d8 06 bc 17 37 8d bc
       -0.031426586 -0.022043165 -0.008230402 -0.017238183

fc2.weight f4 [10, 128]
000000 9e 98 3c be b1 89 a8 3c ad 61 13 3e e4 83 32 be
       -0.18417594 0.020573469 0.14392729 -0.17433125
000010 a5 28 94 bd d2 96 29 3e c1 37 8b be ba 31 08 3d
       -0.07234315 0.1656144 -0.27190974 0.033250548
000020 55 c3 26 be f1 72 ab 3c 7f 0d 90 3c 5e e0 a3 3c
       -0.16285451 0.020928832 0.01758456 0.020004448
000030 c9 57 ef bd 5b 27 11 be e2 c0 6b be 80 37 0f be
       -0.116866656 -0.14175169 -0.23022798 -0.13986015
000040 4d e8 8d 3d 0c 76 0b bd 34 eb da bd 05 4f d6 bd
       0.069290735 -0.034048125 -0.10689393 -0.104642905
000050 70 5f 85 3d 36 42 df bd 79 ef 9b 3d b9 2a dc 3d
       0.06512344 -0.109013006 0.07614035 0.10750336
000060 58 be 16 be 95 7c 91 3d 80 7a 2d 3d bd 56 c1 bc
       -0.14721048 0.0710384 0.042353153 -0.02360093
000070 cf 79 bf 3d ce a0 b6 bd 67 e6 d6 3d 78 69 cd 3d
       0.09349405 -0.0891739 0.104931645 0.10029882
000080 e6 9f 0a be 56 f7 e9 3d 99 4a a3 bd 6f 79 29 be
       -0.13537559 0.11424129 -0.07973213 -0.1655023
000090 7b d8 cd 3d d4 4f 00 3e 52 f3 15 3e 51 1d 1f be
       0.10051056 0.12530452 0.146436 -0.15538527
0000a0 e4 ec 60 3d f8 6e b6 bc b0 a2 0b 3d 47 62 91 3d
       0.054913417 -0.02226971 0.034090698 0.07098823
0000b0 33 3a 87 3d 55 97 39 bd 27 e3 61 bd 43 1d 20 bd
       0.066028975 -0.045310337 -0.05514827 -0.039090406
0000c0 73 46 2f bd 21 2a 29 3e 87 b6 00 3e 09 cb 88 bd
       -0.042791795 0.16519977 0.12569629 -0.06679351
0000d0 83 ab 53 3d ba 87 03 3d 6c 74 3b be 27 7e 15 be
       0.05167724 0.03211186 -0.1830613 -0.14598905
0000e0 1d e9 db bd e5 90 bd 3d ec 1a 04 be aa fc 5b 3d
       -0.10737822 0.09256152 -0.12900895 0.053707756
0000f0 6c 1a ca bc 6e b5 b6 3c fc 3b 17 be 3c d9 28 bc
       -0.024670802 0.02230331 -0.14768976 -0.010305699
000100 ba b4 f3 bd 8c 4c 84 bd 64 5f c5 3b 75 31 dd 3d
       -0.11899705 -0.06459913 0.0060233343 0.10800449
000110 08 72 75 3d 0e d8 21 be b7 e4 1a 3e e8 45 5c bd
       0.0599232 -0.15805075 0.1512631 -0.053777605
000120 ce ba 7a 3d 6e e7 8c 3d 42 61 be bd d6 57 93 3d
       0.061213307 0.06880079 -0.09295894 0.07194488
000130 98 bf 30 3d 00 06 af 3d 8e 9c 88 3a 01 6c b5 3d
       0.043151468 0.08546066 0.0010422633 0.08858491
000140 46 c8 83 3d 38 d2 79 3a 61 4d b4 3b 90 17 c3 bd
       0.064346835 0.0009529921 0.0055023883 -0.095259786
000150 14 06 1d 3e d3 25 00 bd e1 08 ed bc f4 ec 9b 3c
       0.1533435 -0.031286072 -0.028934898 0.019033886
000160 0e 33 61 bd f8 20 ea 3c db 8a 97 3d bd 61 93 3d
       -0.05498033 0.028580174 0.073995315 0.071963765
000170 29 5b 04 be 57 0f 3d be 6b a7 27 bd c1 ff a3 bb
       -0.129254 -0.18462883 -0.040931147 -0.0050048535
000180 bc 4f 80 bd b3 13 91 3d 4d 4e f4 bc 7c cb 9f be
       -0.06265208 0.070838355 -0.029822493 -0.31209934
000190 b9 56 2e bc cd ea f4 bd eb 49 6f 3d dd dc 02 be
       -0.0106407935 -0.11958847 0.058420103 -0.12779565
0001a0 6b 5c 61 bd 7e 86 51 be a8 69 02 3e 5a 28 76 3d
       -0.055019777 -0.20461461 0.12735617 0.060097076
0001b0 24 1e 82 3d 19 09 0f bd a5 74 a7 bd 33 c0 18 be
       0.06353405 -0.034920786 -0.08176545 -0.14917068
0001c0 cd 18 82 3d 52 c9 8d 3a 7e 66 96 3d d1 5f ae bd
       0.063523866 0.0010817444 0.073437676 -0.08514369
0001d0 6f b5 d9 3c 0a 7a af be 83 67 27 be 7a 4e 4f 3d
       0.026575772 -0.34272796 -0.1634808 0.05061195
0001e0 b0 13 db bd f3 39 41 be 15 50 05 bd b7 fe 38 bd
       -0.106971145 -0.18869762 -0.032547075 -0.04516479
0001f0 23 e9 f4 bd ae 78 0b bd 23 62 cd 3c 3b 55 43 3e
       -0.1195853 -0.034050636 0.02507121 0.19075482
000200 59 f8 0f 3e 99 a2 f6 3d 17 47 0a 3e 69 f9 ab bd
       0.14059581 0.12042732 0.13503681 -0.083971806
000210 3d a4 c9 3d 95 28 61 3d 63 c3 4f be 3c fe d2 bd
       0.09845779 0.054970343 -0.20289378 -0.103023976
000220 0f 42 9a 3d b5 34 70 3d 7b 6e 70 3d 4a 8f 3d 3d
       0.07532131 0.058644015 0.058699112 0.04627923
000230 32 45 04 3d 77 7c d9 3d 6b f7 b7 bd 52 f6 ca bc
       0.032292552 0.10619443 -0.08982738 -0.024775658
000240 7f a3 7b 3e 81 6b a3 3b b6 cb 61 be a2 cb 15 3d
       0.24574088 0.0049871807 -0.22050366 0.036571153
000250 ca 01 08 bd ff 4a ce 3d 1d 72 12 be e0 59 50 be
       -0.03320483 0.10072898 -0.14301343 -0.20346785
000260 d5 a9 12 3d a6 03 3a bd 2c 14 a7 bd e6 79 4a 3c
       0.035806496 -0.045413636 -0.08158144 0.012358164
000270 f0 1d b7 bd 65 53 87 bd 2a 83 2a bd 23 bd 25 3e
       -0.08941257 -0.06607703 -0.041628994 0.16185431
000280 94 4b 97 bd 45 1e 2a bd 3d 60 3f bd 60 75 87 3d
       -0.07387462 -0.041532774 -0.04672264 0.066141844
000290 65 8f 0b 3e b4 29 15 be 33 85 73 be 6e 5f c4 3c
       0.1362892 -0.1456669 -0.2378128 0.023971286
0002a0 99 96 bf bd f9 78 a4 3c a8 41 f6 bd 03 9b 81 bd
       -0.09354896 0.020077216 -0.12024242 -0.06328394
0002b0 c2 e4 38 be b8 a7 10 3e 33 4e 11 3e 4e 8a 15 3e
       -0.18056014 0.1412648 0.14189987 0.1460354
0002c0 43 ca 67 3d df 81 cd 3d c6 1e 2e be 11 14 2e 3d
       0.056589376 0.100345366 -0.17003927 0.042499606
0002d0 69 d1 00 be 71 b6 2c 3e 1e 64 30 3c 35 f8 24 3e
       -0.12579884 0.16866471 0.010766057 0.16110308
0002e0 30 cb ff 3c f0 32 c5 bb 20 8e 8b bd e5 f0 07 3d
       0.031224817 -0.006018035 -0.068142176 0.03318872
0002f0 e5 04 eb 3d a7 bf 77 3d 1b 7a 08 be bb e9 58 3d
       0.11475543 0.06048551 -0.1332783 0.052957278
000300 d2 db dc 3d fe c4 96 3d a0 dc 7b 3d 8a 07 53 be
       0.10784115 0.07361792 0.0614897 -0.20608345
000310 55 fd 55 be 96 ac b0 3d 84 62 b1 bd 1c 80 a4 3d
       -0.2089742 0.08626668 -0.086613685 0.080322474
000320 53 62 55 be 57 3d 50 3c 42 19 b7 3c 58 aa 3d be
       -0.20838289 0.012709937 0.022350911 -0.18522012
000330 2d d6 99 bd c0 f2 98 bb d0 85 ff bc f8 26 0d bd
       -0.07511554 -0.00466761 -0.031191736 -0.03446099
000340 01 bf ab bd 49 a4 08 3e cf 9e c4 bb 9d a3 9c 3d
       -0.083860405 0.1334392 -0.006000377 0.07648394
000350 e3 74 9a be 26 38 35 3d 21 e5 18 bd 51 2c d2 3d
       -0.30167302 0.044243 -0.03732789 0.10262359
000360 8a 74 5a bd 29 71 64 3d 13 9f cd bd 5a 96 bc 3c
       -0.053333797 0.05577198 -0.100401066 0.023020912
000370 fc 25 89 be ea 0e 6d 3d 3a e6 d1 3d b8 58 8f 3d
       -0.26786792 0.05787555 0.1024899 0.06999344
000380 82 8c 97 bb dd 74 a4 39 d0 a7 13 be d7 e9 72 bd
       -0.004624904 0.00031367588 -0.14419484 -0.05930504
000390 c7 00 27 3e 21 c3 62 bd 8e 75 73 3d ca a1 55 bc
       0.1630889 -0.05536187 0.05943828 -0.013039062
0003a0 c3 c5 8f bc a1 9e e7 bd af a8 e4 3b 8f 40 28 be
       -0.017550355 -0.11309553 0.0069781165 -0.16430877
0003b0 87 28 a5 3d 59 0f f4 bd 5e 09 a1 bd c9 67 6d 3d
       0.080643706 -0.1191699 -0.07863115 0.057960305
0003c0 df 3c cc bd 5c d0 b0 bd d9 51 16 3d 2e 9b 9e bc
       -0.09972548 -0.086334914 0.03669915 -0.019361105
0003d0 91 73 6e 3d 72 ca 71 be e4 ef 48 be 93 3e 9b be
       0.05821568 -0.23612383 -0.19622761 -0.30321178
0003e0 6c 31 07 3d e6 fd 9c bd 90 99 b0 bd 0f d9 b8 3d
       0.033006117 -0.07665615 -0.0862304 0.09025776
0003f0 a1 fe 78 3e ab 0c 44 3d 6b f7 1e be 57 df b7 bd
       0.24315883 0.047863644 -0.1552407 -0.089781456

fc2.bias f4 [10]
000000 42 be 1e 3d 98 6c 27 3d 45 7c 96 bd eb 1c 9b 3b
       0.038755663 0.040875047 -0.07347921 0.004733672
000010 c3 c7 94 bd d8 c3 a2 3d f9 a0 9d bd 5c 45 44 3d
       -0.07264664 0.079475105 -0.07696719 0.04791771
000020 35 9e 3f 3c 2e 78 11 bd
       0.011695434 -0.035515003
