data/models/two-layer_hidden-size-32_params.pth (torch, 104589 bytes, 4 tensors)

fc1.weight f4 [32, 784]
0	0xbaa81fb5	-0.0012826832
1	0x3b8f38ae	0.0043707704
2	0x3d1d45bb	0.03839658
3	0x3d29400b	0.04132084
4	0x3d1f9377	0.038958993
5	0x3c2aec6a	0.010432342
6	0xbbf50532	-0.007477426
7	0xbc3e21e7	-0.011604763
8	0xbaf9316b	-0.001901192
9	0x3c40dd98	0.011771582
10	0x3d1f1b27	0.038844254
11	0xbc9390a1	-0.0180133
12	0xbc389c8c	-0.011267792
13	0x3b756803	0.003744603
14	0x3d083dd4	0.03326209
15	0x3d191087	0.037369277
16	0x3cccea9a	0.02501421
17	0x3af1b1f6	0.0018439877
18	0xba602422	-0.0008550306
19	0xbcc4cf8e	-0.024024751
20	0x3cf7e3d7	0.03026001
21	0xbcdfc554	-0.027315773
22	0x3ccf4888	0.02530314
23	0x3d18fe45	0.037351865
24	0xbbc87990	-0.006118007
25	0x3bc82d58	0.006108921
26	0x3ca1549e	0.019693669
27	0x3d0eaab7	0.034830775
28	0xbb7000e3	-0.0036621622
29	0x3c615bf2	0.013754832
30	0x3cdcb1f1	0.026940318
31	0xbc4e8817	-0.012605689
32	0x3ca631ca	0.020287413
33	0xbba211ff	-0.004945993
34	0x3be7b0cf	0.007070638
35	0xbcb27d69	-0.021788316
36	0xbc97b3c4	-0.018518336
37	0x3cd15212	0.02555183
38	0xbc3c63b3	-0.0114983795
39	0x3c528cfe	0.012850998
40	0x3d008f7f	0.03138685
41	0x3b4f66d0	0.0031646974
42	0xbcf9dfd2	-0.030502234
43	0xbcc931ee	-0.024559941
44	0x3d5ffc09	0.05468372
45	0xbc8d97aa	-0.017284233
46	0xbc7b1e89	-0.015327104
47	0x3b2e94b5	0.002663893
48	0x3c604e52	0.013690548
49	0xbb81d242	-0.0039618323
50	0xbcd3bb6a	-0.025846202
51	0x3cb80750	0.022464424
52	0xbce78c12	-0.028265033
53	0xbc2ec6d5	-0.010667522
54	0x3c6c813e	0.014435111
55	0xbbe2e552	-0.00692431
56	0x3c892c28	0.016744688
57	0xbca05c58	-0.019575283
58	0x3d16a43f	0.03677773
59	0x3c395ec0	0.011314094
60	0x3c16e451	0.009209708
61	0xbca9bab1	-0.020718904
62	0xbc584706	-0.013200527
63	0x3d0fb445	0.035084028
64	0xbcb89fd2	-0.022537146
65	0x3c0d13bc	0.008610662
66	0xbccaf273	-0.024773812
67	0x3ce8da09	0.02842428
68	0xbcbf5563	-0.023356145
69	0xbc8f0350	-0.017457634
70	0xbd9f7a51	-0.07787002
71	0xbdcbc011	-0.09948743
72	0xbdc6b238	-0.09701961
73	0xbd33f444	-0.04393412
74	0xbd991e67	-0.07476502
75	0xbd467a17	-0.048456278
76	0xbb11252c	-0.00221474
77	0xbca7dbe4	-0.020490594
78	0xbba371a4	-0.0049879123
79	0x3cef7866	0.029232215
80	0x3be0cf76	0.006860669
81	0x3c5e261d	0.013558892
82	0x3cf119bf	0.029431222
83	0x3cd83a51	0.026394995
84	0x3c859f40	0.016311288
85	0xbc57ad84	-0.013163928
86	0x3c98bb62	0.018644039
87	0x3c53ca78	0.01292669
88	0xbc115051	-0.008869247
89	0xba7e9988	-0.0009712209
90	0xbca7223d	-0.020402068
91	0xbc0c3ff1	-0.008560167
92	0xbcf93aa9	-0.03042348
93	0x3cb72c33	0.022359943
94	0x3cdd5211	0.027016671
95	0x3cf06858	0.02934663
96	0xbb98b4c9	-0.004660223
97	0x3c563afb	0.0130755855
98	0xbd268811	-0.040657107
99	0xbdbbcc30	-0.09169805
100	0xbe0a81fa	-0.13526145
101	0xbd8c6270	-0.06854713
102	0xbd910520	-0.07081056
103	0xbdad6ee0	-0.08468413
104	0xbdb71abd	-0.08940647
105	0xbd87ba2f	-0.066273086
106	0xbcf75102	-0.030189995
107	0xbcba17b6	-0.022716384
108	0xbcbe0bde	-0.023199018
109	0x3cf5c1a7	0.029999567
110	0x3bda708e	0.0066662496
111	0x3c2a765c	0.010404196
112	0xb9d3cb7b	-0.0004039666
113	0x3cb8d3d5	0.022561947
114	0xbbac6188	-0.00526065
115	0xbca3f7ff	-0.020015715
116	0xbd2a4288	-0.041567355
117	0xbccd7bb7	-0.025083406
118	0xbc5996b0	-0.013280556
119	0x3c5ec34e	0.013596369
120	0xbcaa2e42	-0.02077401
121	0x3d9c6bbf	0.076377384
122	0x3d79b478	0.060963124
123	0x3d88a507	0.066721015
124	0x3d4064af	0.04697102
125	0x3d4d93fc	0.050189957
126	0x39434df4	0.00018625689
127	0xbceeb110	-0.029137164
128	0xbd4aa3b2	-0.04947252
129	0xbd42c630	-0.047552288
130	0xbdc3e641	-0.09565402
131	0xbde3d92b	-0.11125406
132	0xbe0e4bc5	-0.13896091
133	0xbe109f2e	-0.14123222
134	0xbdcae1cf	-0.09906351
135	0xbcc95837	-0.024578197
136	0x3c622046	0.01380164
137	0x3c3f9b5d	0.011694756
138	0x3d0cf485	0.03441288
139	0xbca4435f	-0.020051656
140	0xbb8ae116	-0.004238258
141	0xbc8529b3	-0.016255235
142	0xbcccf423	-0.025018757
143	0xbc250d34	-0.010073949
144	0xbd3bc9d8	-0.04584679
145	0x3a259534	0.00063164835
146	0x3d981958	0.07426709
147	0x3d5ae27b	0.053438645
148	0x3d97740a	0.073951796
149	0x3de56834	0.11201516
150	0x3d8caa09	0.06868369
151	0x3de4813e	0.111574635
152	0x3d5c6f4c	0.05381708
153	0x3db9c87d	0.09071443
154	0x3ce35b95	0.02775363
155	0x3c5ce50c	0.013482343
156	0xbc24a40b	-0.0100488765
157	0xbc95ca73	-0.018285012
158	0xbcbdbaef	-0.023160426
159	0xbdbb3224	-0.09140423
160	0xbda946f2	-0.08265485
161	0xbda9bfeb	-0.082885586
162	0xbd806904	-0.0627003
163	0xbd6f8ae6	-0.058482073
164	0xbd86e69f	-0.06586956
165	0x3cf3356b	0.029688558
166	0xbd085c6b	-0.03329126
167	0x3ba01d30	0.004886292
168	0x3d17cd39	0.03706095
169	0x3c1703d6	0.009217223
170	0xbca95b83	-0.020673519
171	0xbbf08dbf	-0.007341116
172	0xbc7248b0	-0.014787838
173	0x3d098c16	0.033580862
174	0x3d537843	0.051628362
175	0x3d671b77	0.056422677
176	0x3d6482d4	0.05578883
177	0x3d29c82f	0.041450676
178	0x3d8f800a	0.070068434
179	0x3df1edf3	0.11812963
180	0x3e0f264b	0.13979451
181	0x3e05759b	0.13033144
182	0x3d3c6589	0.04599527
183	0x3bc4e3c1	0.0060085957
184	0xbd8a4e53	-0.067532204
185	0xbc18afad	-0.009319228
186	0xbda6e502	-0.081491485
187	0x3c9efaa5	0.019406626
188	0xbd12cc64	-0.035839453
189	0x3c3877ca	0.011259029
190	0x3cb4056b	0.02197524
191	0xbdd32a17	-0.103107624
192	0xbd550944	-0.05201079
193	0xbd7e38ff	-0.062066074
194	0xbcbb40bd	-0.022858018
195	0xbcfbee8c	-0.030753396
196	0xbb805c54	-0.0039172564
197	0x3ce6f70b	0.028193971
198	0x3be7bd2f	0.007072113
199	0x3c92ef95	0.017936507
200	0x3c8c0b8c	0.01709535
201	0x3cfd26d2	0.0309023
202	0x3e051304	0.12995535
203	0x3c93e359	0.018052744
204	0x3d848f58	0.06472653
205	0x3debe98a	0.115191534
206	0x3dfc7eff	0.1232891
207	0x3e088be2	0.13334611
208	0x3e016384	0.12635618
209	0x3e4c1c9e	0.19932792
210	0x3dca4a51	0.09877456
211	0x39b97dc5	0.00035379655
212	0x3bef8cb8	0.007310476
213	0xbbab7b50	-0.005233206
214	0x3db0f1a6	0.08639841
215	0x3d652174	0.055940107
216	0x3cc730d5	0.024315277
217	0x3d29b2f0	0.041430414
218	0x3d70a84d	0.058754254
219	0x3a3b520a	0.00071457087
220	0xbd7044df	-0.05865943
221	0xbd632360	-0.055453658
222	0xbd3f0756	-0.046637855
223	0x3ccbaccb	0.024862668
224	0xbc2ab23b	-0.01041847
225	0x3cb261a2	0.02177507
226	0x3cfd40df	0.030914722
227	0xbbfcf2fb	-0.007719395
228	0x3c1de515	0.009637137
229	0xbba52272	-0.0050395066
230	0x3cc3c190	0.023896009
231	0x3d5b3ccd	0.05352478
232	0x3c6f5a78	0.014608972
233	0x3dc30f9e	0.09524463
234	0x3dd84d2c	0.10561594
235	0x3ded52cc	0.11588058
236	0x3e18bc93	0.14915685
237	0x3ddf40be	0.109010205
238	0x3e154850	0.14578366
239	0x3dc54c14	0.096336514
240	0x3dac3a6d	0.08409581
241	0x3e105335	0.14094241
242	0x3da3a4c6	0.079904124
243	0x3dbae972	0.091265574
244	0x3cb85bf8	0.022504792
245	0x3a3fa429	0.00073105335
246	0x3b4ce1a7	0.003126243
247	0x3cb316fc	0.021861546
248	0xbcdba495	-0.026811877
249	0xbdc63750	-0.09678519
250	0x3c8b7284	0.017022379
251	0xbcc7005a	-0.02429216
252	0x3d1ad78a	0.03780321
253	0xbc980a7c	-0.018559687
254	0xbb3bc270	-0.002864983
255	0x3c996de0	0.01872915

fc1.bias f4 [32]
0	0x3c9b66df	0.018969951
1	0x3bc9fef0	0.006164424
2	0x3bb113e5	0.005403983
3	0xbd21766c	-0.039419577
4	0xbc42f31a	-0.01189878
5	0x3d0decb4	0.034649566
6	0x3d23e8cb	0.04001693
7	0x3d2a3050	0.04154998
8	0xbcee1c5b	-0.029066255
9	0xbd126b4d	-0.03574686
10	0xbc5bbe93	-0.013412136
11	0x3cad7e98	0.021178529
12	0x3b985a49	0.0046494347
13	0x3c9139b6	0.017727714
14	0x3b9cc54c	0.004784262
15	0x3cc0b8f3	0.02352569
16	0xbc8a5dfe	-0.016890522
17	0xbc152ec8	-0.009105392
18	0x3d632365	0.055453677
19	0xbccaf477	-0.024774773
20	0x3d84a1c1	0.064761646
21	0x3ccfd35a	0.025369335
22	0xbbcd00fb	-0.0062562204
23	0x3d352fe5	0.04423513
24	0x3d2e1eac	0.04250972
25	0xbcbf4221	-0.023346962
26	0x3d01f00e	0.031723075
27	0xbd05e1af	-0.03268593
28	0xbc604a83	-0.01368964
29	0x3ce70300	0.028199673
30	0x3cc346a5	0.023837397
31	0x3cd008c8	0.025394812

fc2.weight f4 [10, 32]
0	0x3e5d31a3	0.21600966
1	0x3e0b3ad3	0.13596658
2	0xbdb9a441	-0.09064532
3	0xbe5b6ff5	-0.21429427
4	0x3d312d39	0.04325602
5	0xbe071c75	-0.13194449
6	0xbebf14b0	-0.3732047
7	0x3ddcbd2f	0.107782714
8	0x3e2dc311	0.16968943
9	0x3dbf61a1	0.09344793
10	0xbe4581e9	-0.19287838
11	0xbd9c4ac8	-0.07631451
12	0x3e6c8aff	0.23099898
13	0x3d031dc6	0.032010816
14	0x3c9a5834	0.018840887
15	0x3e493d22	0.19652227
16	0x3ded59d8	0.11589402
17	0x3e57d5e8	0.21077693
18	0xbe69b1f1	-0.22821786
19	0xbcb927cb	-0.022601983
20	0xbe206e6d	-0.15667124
21	0x3e19fc5a	0.1503767
22	0xbe1efe46	-0.15526685
23	0xbbe50e9f	-0.0069902684
24	0x3e37c8ec	0.1794774
25	0xbdaecd9f	-0.08535313
26	0x3e549b08	0.20762265
27	0xbeaaddb1	-0.33372262
28	0xbddbdd45	-0.10735563
29	0xbea4df96	-0.32201833
30	0xbc01a657	-0.007913194
31	0xbe66c94a	-0.22537723
32	0xbde1cc64	-0.110253125
33	0xbe0c050d	-0.13673802
34	0x3db2296a	0.08699305
35	0x3e3bfb55	0.18357594
36	0x3e13687a	0.14395323
37	0x3e3ebbcf	0.18626331
38	0xbe1b1fab	-0.15148799
39	0xbe1ae583	-0.15126614
40	0x3e33382f	0.17501901
41	0xbe8f613a	-0.28003865
42	0xbdce5771	-0.10075272
43	0xbe4d67ca	-0.20059124
44	0xbcdf8ddd	-0.027289325
45	0xbe873ae6	-0.26412123
46	0xbe97889f	-0.2959642
47	0xbd68c796	-0.056830965
48	0xbe071abd	-0.13193794
49	0xbe88637e	-0.26638407
50	0x3e70452d	0.23463888
51	0xbe083847	-0.13302718
52	0xbcad37e4	-0.021144815
53	0xbe93d3be	-0.28872484
54	0xbeb661dc	-0.35621536
55	0x3d86a1ad	0.06573806
56	0x3dc54f04	0.09634212
57	0xbddba30b	-0.10724457
58	0x3e687eb6	0.22704586
59	0x3dd41829	0.10356171
60	0x3ea5ea84	0.32405484
61	0x3deeab71	0.116537936
62	0x3d81c4e6	0.063363835
63	0x3e038557	0.12843834
64	0x3e9068b2	0.28204876
65	0x3e086c41	0.13322546
66	0xbf1a9ccc	-0.60395503
67	0xbe2ab4f3	-0.16670589
68	0x3df311d3	0.11868634
69	0xbd5d483e	-0.054023974
70	0xbeb19072	-0.34680516
71	0xbeccf82e	-0.40033096
72	0xbe67ebb7	-0.22648512
73	0x3c83f8f9	0.01610993
74	0xbd7d2cc6	-0.061810277
75	0x3e5f0fc0	0.21783352
76	0xbeb08b3a	-0.3448122
77	0xbe8db77f	-0.2767906
78	0x3d039d93	0.032132696
79	0x3c907a39	0.017636405
80	0xbe1cd062	-0.15313867
81	0x3d5431c7	0.051805284
82	0x3e625f35	0.22106631
83	0x3dc661ce	0.096866235
84	0x3e3b509f	0.18292473
85	0x3d4b6eec	0.04966633
86	0x3dafe319	0.08588237
87	0x3e34a070	0.17639327
88	0x3da3f3cc	0.08005485
89	0xbd7a9b56	-0.061183296
90	0x3e5a9848	0.21347153
91	0xbeae35da	-0.3402546
92	0x3d9a274b	0.07527026
93	0xbd172dfb	-0.036909085
94	0x3e2c42c6	0.16822347
95	0x3e31b3dc	0.17353767
96	0xbdcd12bd	-0.1001334
97	0xbe799a22	-0.24375203
98	0xbd199903	-0.03749944
99	0x3d1fb47d	0.038990486
100	0x3e159592	0.14607838
101	0x3e0f061e	0.13967177
102	0x3c97618e	0.018479135
103	0xbeb94f0a	-0.36193115
104	0x3d76283b	0.06009696
105	0xbe5de4a2	-0.21669248
106	0xbe1744a6	-0.14772281
107	0x3e55133f	0.20808123
108	0xbe6fdc24	-0.2342382
109	0x3ce0f129	0.027458744
110	0xbdacfb45	-0.08446363
111	0xbe152873	-0.14566211
112	0x3d56b6e8	0.052420527
113	0x3ded835e	0.11597322
114	0xbe475d2c	-0.19469136
115	0x3e6761ca	0.22595897
116	0x3d8c2040	0.06842089
117	0x3dca2e38	0.09872097
118	0xbe833c6d	-0.2563204
119	0x3e1eaae3	0.15494876
120	0x3e412c8b	0.18864648
121	0xbd5d718a	-0.054063357
122	0xbe354b66	-0.17704543
123	0x3e84f07d	0.25964728
124	0x3e4ceb4b	0.20011632
125	0x3e13d417	0.14436375
126	0x3e27a57e	0.16371724
127	0x3e181d82	0.14855006
128	0x3d03a7d4	0.032142475
129	0x3e0a96c6	0.13534078
130	0x3e569af6	0.2095755
131	0x3ea38850	0.31939936
132	0x3e04a37f	0.12952994
133	0xbe1292f7	-0.14313875
134	0x3e0d1af2	0.1377981
135	0xbd041db6	-0.032254897
136	0xbed526fd	-0.41631308
137	0x3e38c0c0	0.18042278
138	0x3da26679	0.07929701
139	0xbdc9c803	-0.09852602
140	0x3e24540c	0.16047686
141	0xbe100c21	-0.14067127
142	0x3b91f1e2	0.0044538835
143	0xbf066391	-0.52495676
144	0x3dde80e8	0.10864431
145	0xbe3f867f	-0.1870365
146	0x3d3382a5	0.043825764
147	0xbee1c612	-0.44096428
148	0xbeb61d47	-0.35569212
149	0x3dbb7d8f	0.09154808
150	0x3e247483	0.1606007
151	0xbda7f516	-0.08201043
152	0x3ded73e6	0.115943715
153	0x3d980684	0.07423118
154	0xbd4c9077	-0.04994246
155	0x3b38d47d	0.0028202825
156	0xbe8891ff	-0.26673886
157	0xbd6d61cd	-0.0579546
158	0x3e43057e	0.19045064
159	0xbe110949	-0.14163698
160	0xbd038f6c	-0.0321192
161	0x3dec65a2	0.115428224
162	0x3e25d92d	0.16196127
163	0xbef59c6d	-0.47970906
164	0x3e096176	0.13416085
165	0xbe78035d	-0.24220033
166	0x3e17e4ab	0.14833324
167	0xbd0533a3	-0.032519948
168	0x3ebefd7a	0.37302762
169	0xbe434660	-0.19069815
170	0xbe0938e6	-0.13400611
171	0xbd155d39	-0.036465857
172	0xbdd4a008	-0.10382086
173	0x3e1c4c2c	0.15263432
174	0x3b9bed97	0.0047585475
175	0x3e0bd464	0.1365524
176	0x3d0d7a9f	0.03454077
177	0x3e28717b	0.1644954
178	0xbe3661fe	-0.17810819
179	0xbe08922e	-0.13337013
180	0x3e242855	0.1603101
181	0xbdce174d	-0.10063038
182	0x3de2e2ab	0.1107839
183	0xbe41e568	-0.18935168
184	0x3da29558	0.07938641
185	0xbdf43971	-0.119250186
186	0x3e156edf	0.14593075
187	0x3e8e70ba	0.2782038
188	0xbe3bf295	-0.18354256
189	0x3e3a25e0	0.1817851
190	0xbf0b8c86	-0.54511297
191	0x3e7b46a9	0.24538673
192	0xbe6e4ad9	-0.2327074
193	0x3e3e91aa	0.18610254
194	0xbaaaee22	-0.001304094
195	0x3df6cc42	0.12050678
196	0xbe91b303	-0.28456888
197	0xbec0da9d	-0.3766679
198	0xbc441512	-0.011967914
199	0x3d320f3b	0.043471556
200	0x3d953c39	0.07286877
201	0x3e494638	0.19655693
202	0xbe927869	-0.2860749
203	0x3de6c9f1	0.11268986
204	0x3da74c65	0.08168868
205	0x3dd7e0dd	0.10540936
206	0xbe83d45a	-0.2574795
207	0x3e62dd0e	0.22154638
208	0x3e02ac13	0.12760954
209	0x3e16fd51	0.1474507
210	0x3e7cd61f	0.24691056
211	0xbe1ac741	-0.15115072
212	0xbe416415	-0.18885835
213	0xbe9ac7a7	-0.30230448
214	0x3dc9fffa	0.09863277
215	0x3d55df00	0.052214622
216	0x3d974ad0	0.07387316
217	0x3cb93b53	0.022611296
218	0xbe207848	-0.15670884
219	0xbdec115c	-0.115267485
220	0x3df4cfd2	0.11953701
221	0xbf0379db	-0.5135781
222	0x3d93fc4d	0.07225857
223	0xbea9e5a7	-0.33183023
224	0x3e843eef	0.25829265
225	0xbed2c5e8	-0.41166615
226	0xbe38aac3	-0.1803389
227	0x3e2d7f5f	0.1694312
228	0x3e86c3fc	0.263214
229	0x3e20d72d	0.15707083
230	0xbe3cb1c3	-0.18427186
231	0xbe24a17b	-0.16077225
232	0xbe378b19	-0.17924155
233	0x3e3d7aed	0.18503924
234	0x3e302366	0.17201003
235	0xbdc228d8	-0.094804466
236	0x3ecbb728	0.39788175
237	0x3ccea56c	0.025225364
238	0x3e17565a	0.14779034
239	0x3d67150e	0.056416564
240	0xbe130370	-0.1435678
241	0xbd955c05	-0.07292942
242	0xbc5a0c57	-0.013308606
243	0x3e9be248	0.30446076
244	0xbe5abcba	-0.21361056
245	0x3dea852a	0.1145118
246	0xbe34a2f8	-0.17640293
247	0x3e22519c	0.15851444
248	0xbeafb232	-0.3431564
249	0xbd5b52d2	-0.05354578
250	0x3ca7c085	0.020477543
251	0xbec78f67	-0.38976595
252	0x3db675dd	0.089091994
253	0xbda0a19b	-0.07843324
254	0xbb7a9f98	-0.0038242098
255	0xbc8bd910	-0.017071277

fc2.bias f4 [10]
0	0xbe307ece	-0.17235872
1	0xbe08f9fa	-0.13376608
2	0x3e2a5134	0.16632539
3	0xbe133710	-0.14376473
4	0xbd97b1b2	-0.074069396
5	0xbd8480d8	-0.064698875
6	0x3ddecff1	0.108795054
7	0xbe2d3ab5	-0.16916926
8	0xbddddfb7	-0.10833686
9	0x3dc1afeb	0.09457382
